models/With_Ordinal_Encoding/All_Positive/NNClass_35_12_6_Sigmoid_Sigmoid_10_epoch_60.pt (torch, 5424 bytes, 6 tensors)

classifier.0.weight f4 [12, 35]
-0.21733661 -0.08263284 1.1670221 -0.23790428 -0.5767209 0.02325911 0.055360917 -0.24230768
0.23746738 -0.58618045 -0.14913522 2.2488143 0.2468234 -0.35939494 -2.406559 0.48878404
0.8095755 0.016207175 -0.25803176 -0.16077001 -0.9342529 0.7416036 0.6542785 -0.12171392
-0.8676573 -0.048579 2.243503 -2.4997032 -2.4444587 0.29198343 0.5232059 -0.043663602
-1.0155702 -0.14284685 -0.110164106 0.5590354 -0.39458647 0.017704627 0.39504072 0.43390822
-0.12435891 -0.08019267 0.15393588 -0.03721211 0.140031 0.06430228 -1.5383176 -0.105064906
0.2505309 1.8380798 -0.94408387 -0.66527045 -0.10834222 0.1621051 0.2956587 0.81871253
-0.7943794 -0.46687213 -0.35121155 0.20728293 -0.044184998 -1.0344646 2.1838684 2.4204187
0.47695866 -0.64038825 0.090616554 1.2291951 0.37231538 -0.30578357 0.22518334 -1.0404377
-0.4690818 0.21070805 0.0784111 -0.30238146 -0.13688439 -0.054043002 -0.12319808 1.1186061
-0.7622632 -0.54361975 0.03431904 -1.1541456 -0.17551261 -1.1134557 0.9910118 -0.5612196
-0.26155126 -0.34723103 0.24518831 -1.3376073 0.088061735 -1.1495713 -0.17233875 0.43913117
-0.674241 1.8601167 1.9658583 -0.17485876 -1.756202 0.8506692 2.1826816 0.3800439
-0.8907858 0.7066362 -0.77236164 0.9968523 0.9076789 0.02697456 -0.2758881 0.24422832
0.021254249 0.08006701 0.10168478 -0.45425838 1.6642271 -0.061657693 -2.2898312 -1.0509613
-0.09135613 1.2457585 -0.2779209 0.17734456 0.010504563 -0.34072143 0.3793554 1.1131994
-1.1246926 1.9468572 0.13999075 0.9031871 -1.8446947 0.94768006 -0.6801607 -0.62602234
0.30753955 0.718526 0.44688648 0.6724186 0.92072123 -1.072048 0.4048658 0.53388035
0.20161489 -0.11518199 -0.2140855 -0.14436541 -0.047732875 0.54065365 0.055832766 -0.22394243
0.47326112 -0.5488566 0.76402736 -1.1734991 -0.38917428 -0.030654434 -0.80875623 -0.15200612
0.7664815 -0.94069403 -0.49210748 -0.9391025 0.18579152 -0.19426027 -0.04844032 2.3645005
2.5945837 0.6635095 -1.0008633 -0.18898687 1.0775346 0.6826294 -0.3185989 0.16465545
-1.1633078 -0.7733241 -0.53418565 0.19872187 -0.832217 -0.21987282 -0.09133728 0.08933755
0.9082197 -0.06289951 -0.43771458 0.4118905 -1.1844766 -0.04128985 -0.5732735 1.1732605
-0.3047356 -0.18889949 -0.056776073 0.24168512 -1.2980993 -0.15555426 -1.3985841 0.29519475
-0.232134 -0.5521718 1.5802903 2.0015662 0.12613037 -1.5119951 1.0609869 1.9910828
-0.16561988 -1.4900409 0.38928887 -0.8573881 -0.13115558 0.33452567 0.40184173 -0.23501588
-0.13457753 -0.058031164 0.067758694 0.62438023 0.19563797 -1.186299 0.29369524 0.12694874
1.899667 -0.87368137 -0.20481503 -0.09718154 0.301206 0.23802413 0.930298 -0.87340033
-0.31276217 -0.789659 0.17630333 -0.14500122 -0.7500383 2.2246528 2.5648625 0.5825361
-0.43305662 0.578709 1.2050778 0.33229318 -0.5954838 -0.5761503 0.009174185 0.38261804
0.36330232 -0.24419037 -0.42846406 0.35789168 -0.2276128 0.05371148 0.14331973 0.1422324
00000000: 7d8d 5ebe 683b a9bd fb60 953f 2e9d 73be
00000010: fba3 13bf e489 be3c 21c2 623d 811f 78be
00000020: a62a 733e ec0f 16bf e7b6 18be 93ec 0f40
00000030: 46bf 7c3e 9d02 b8be 1005 1ac0 e741 fa3e
00000040: 5740 4f3f e9c4 843c bd1c 84be e5a0 24be
00000050: 332b 6fbf bcd9 3d3f cc7e 273f 2645 f9bd
00000060: ca1e 5ebf c6fa 46bd 8e95 0f40 23fb 1fc0
00000070: 0372 1cc0 da7e 953e d2f0 053f 9bd8 32bd
00000080: 34fe 81bf 7246 12be b89d e1bd f21c 0f3f
00000090: 3d07 cabe 4b09 913c c742 ca3e 3829 de3e
000000a0: e2af febd 0e3c a4bd 5ea1 1d3e ba6b 18bd
000000b0: 4964 0f3e eab0 833d 97e7 c4bf 452c d7bd
000000c0: 9645 803e 3346 eb3f 7baf 71bf 2a4f 2abf
000000d0: 87e2 ddbd e1fe 253e 9460 973e 2597 513f
000000e0: 735c 4bbf dd09 efbe 00d2 b3be fa41 543e
000000f0: 54fb 34bd 5669 84bf 80c4 0b40 24e8 1a40
00000100: ed33 f43e 7cf0 23bf 2c95 b93d 4456 9d3f
00000110: 1fa0 be3e aa8f 9cbe 7696 663e 102d 85bf
00000120: 7d2b f0be dac3 573e 0096 a03d bed1 9abe
00000130: 6c2b 0cbe 325c 5dbd 464f fcbd 7c2e 8f3f
00000140: ae23 43bf aa2a 0bbf 1f92 0c3d 0bbb 93bf
00000150: 94b9 33be b785 8ebf f3b2 7d3f 16ac 0fbf
00000160: 0cea 85be 44c8 b1be a512 7b3e b736 abbf
00000170: b659 b43d 2725 93bf 9279 30be cdd5 e03e
00000180: 0f9b 2cbf 4e18 ee3f 3fa1 fb3f 2d0e 33be
00000190: 3acb e0bf 75c5 593f 0eb1 0b40 1d95 c23e
000001a0: 8a0a 64bf 1ce6 343f 7eb9 45bf b631 7f3f
000001b0: a55d 683f c1f9 dc3c 3441 8dbe fd16 7a3e
000001c0: 641d ae3c 2cfa a33d 1c40 d03d 8e94 e8be
000001d0: 6505 d53f c78c 7cbd 988c 12c0 e685 86bf
000001e0: ec18 bbbd 0475 9f3f a64b 8ebe d099 353e
000001f0: 551b 2c3c 0a73 aebe df3a c23e 517d 8e3f
00000200: edf5 8fbf 9e32 f93f bc59 0f3e 4537 673f
00000210: f51e ecbf 299b 723f 031f 2ebf 0043 20bf
00000220: d375 9d3e 52f1 373f 4ece e43e a023 2c3f
00000230: 63b4 6b3f de38 89bf 924a cf3e 62ac 083f
00000240: 2274 4e3e 89e4 ebbd 3b39 5bbe 87d4 13be
00000250: 8c83 43bd 4768 0a3f e6b0 643d 2a51 65be
00000260: 484f f23e de81 0cbf 4c97 433f 3835 96bf
00000270: da41 c7be 021f fbbc a60a 4fbf 7ea7 1bbe
00000280: 2238 443f 53d1 70bf 83f5 fbbe 0569 70bf
00000290: 2240 3e3e 2aec 46be 5b69 46bd fa53 1740
000002a0: a90d 2640 c2db 293f 4a1c 80bf c685 41be
000002b0: a7ec 893f cdc0 2e3f 651f a3be 709b 283e
000002c0: 45e7 94bf 91f8 45bf 64c0 08bf bf7d 4b3e
000002d0: 2c0c 55bf 5726 61be 0a0f bbbd 9bf6 b63d
000002e0: 1681 683f 75d1 80bd 201c e0be 50e3 d23e
000002f0: ee9c 97bf 8c1f 29bd 0dc2 12bf 662d 963f
00000300: 4e06 9cbe de6e 41be 078e 68bd 4e7c 773e
00000310: 1e28 a6bf 9e49 1fbe ce04 b3bf c423 973e
00000320: 89b4 6dbe 225b 0dbf f446 ca3f a919 0040
00000330: 5228 013e 0e89 c1bf 6bce 873f cddb fe3f
00000340: 4298 29be a9b9 bebf df50 c73e c97d 5bbf
00000350: a64d 06be f346 ab3e 33be cd3e 01a8 70be
00000360: b1ce 09be 16b2 6dbd 12c5 8a3d 62d7 1f3f
00000370: 5255 483e a5d8 97bf 395f 963e dafe 013e
00000380: 4a28 f33f 95a9 5fbf 08bb 51be 1e07 c7bd
00000390: ac37 9a3e 99bc 733e 0228 6e3f 2a97 5fbf
000003a0: 5d22 a0be 1827 4abf dc88 343e 337b 14be
000003b0: 8302 40bf b660 0e40 b526 2440 1621 153f
000003c0: 99b9 ddbe 4626 143f fd3f 9a3f 5522 aa3e
000003d0: a071 18bf 967e 13bf 524f 163c 83e6 c33e
000003e0: c302 ba3e 0a0d 7abe a45f dbbe 943d b73e
000003f0: 5413 69be 9200 5c3d 68c2 123e 5fa5 113e

classifier.0.bias f4 [12]
-0.64062995 0.35899523 0.30215836 0.08766742 0.059667736 0.034134425 0.16512373 0.22522731
0.25466648 0.007310973 0.16070922 -0.12402841
00000000: 5300 24bf 39ce b73e 80b4 9a3e fa8a b33d
00000010: 2866 743d 8ad0 0b3d 3216 293e fda1 663e
00000020: a563 823e e390 ef3b f590 243e 9b02 febd

classifier.3.weight f4 [6, 12]
-1.2558801 -0.3769718 2.0273664 1.0877311 1.1171645 1.7582482 -0.23595855 0.0070445584
1.6687405 1.5820066 -1.5550317 1.552987 1.7428851 -1.7398448 -1.0922513 0.89753914
-1.2500987 -1.2740034 -1.5888687 1.2080646 -1.4652624 -1.647128 -2.508204 -1.256622
-1.4375911 -0.64189553 2.3522542 0.9507215 1.31407 2.0788176 -0.05600933 -0.21910606
1.4894615 1.9582498 -1.5559118 1.6821687 1.8501849 -1.7240038 -1.2891914 0.6935011
-1.4053935 -1.3235358 -1.6953007 1.5166388 -1.2592098 -1.4958992 -2.4198916 -0.9785093
1.6945614 -1.1189811 1.0975856 3.3748252 -0.009315532 0.9536321 -0.7390947 2.8283222
0.81184137 -0.04724836 -1.7862885 0.7866295 -1.8282906 1.9337056 1.0931457 -0.85114795
1.7531277 1.209459 1.5752879 -1.2799859 1.0969284 1.8465574 1.7400364 0.88331646
00000000: aec0 a0bf 7302 c1be 5fc0 0140 c63a 8b3f
00000010: 3fff 8e3f 470e e13f 1e9f 71be 0ad6 e63b
00000020: 4a99 d53f 317f ca3f 470b c7bf 47c8 c63f
00000030: dc16 df3f 3cb3 debf e4ce 8bbf 20c5 653f
00000040: 3c03 a0bf 8b12 a3bf 0d60 cbbf dca1 9a3f
00000050: b88d bbbf 17d5 d2bf 6a86 20c0 fdd8 a0bf
00000060: fc02 b8bf 4453 24bf 558b 1640 7c62 733f
00000070: 7233 a83f 590b 0540 0a6a 65bd 575d 60be
00000080: ada6 be3f eea7 fa3f 1e28 c7bf 4e51 d73f
00000090: dcd2 ec3f 28ac dcbf 3904 a5bf 4a89 313f
000000a0: efe3 b3bf 9f69 a9bf 9dff d8bf 3821 c23f
000000b0: c92d a1bf a079 bfbf 81df 1ac0 967f 7abf
000000c0: 63e7 d83f c63a 8fbf af7d 8c3f 23fd 5740
000000d0: 2ca0 18bc 3c21 743f 4f35 3dbf 3b03 3540
000000e0: d6d4 4f3f 7f87 41bd 1aa5 e4bf 8d60 493f
000000f0: 6d05 eabf aa83 f73f 33ec 8b3f d5e4 59bf
00000100: 7d66 e03f 8dcf 9a3f 09a3 c93f 94d6 a3bf
00000110: 2668 8c3f fe5b ec3f 83b9 de3f 0721 623f

classifier.3.bias f4 [6]
-1.9565066 0.05108723 -2.0598872 0.106016934 -1.1822066 -0.75770205
00000000: cf6e fabf d840 513d 31d5 03c0 681f d93d
00000010: 8c52 97bf c3f8 41bf

classifier.6.weight f4 [3, 6]
-0.8711474 2.9235196 -1.1948854 2.6597657 1.0307325 -2.3518972 -1.7357018 -1.5295413
-1.8866454 -1.4486669 -2.357486 1.382909 1.3636695 -1.9077331 1.459198 -1.8968217
0.7740037 1.384871
00000000: 8403 5fbf f21a 3b40 01f2 98bf 9a39 2a40
00000010: 0bef 833f 7c85 16c0 7a2b debf 02c8 c3bf
00000020: 997d f1bf eb6d b9bf 0de1 16c0 2a03 b13f
00000030: b98c ae3f 9930 f4bf 00c7 ba3f 0ecb f2bf
00000040: 1b25 463f 7443 b13f

classifier.6.bias f4 [3]
-1.0863642 0.63620454 0.048717372
00000000: fb0d 8bbf 4dde 223f de8b 473d
