models/AtClass_66_24_8_ReLU_Sigmoid_10_epoch_45.pt (torch, 11974 bytes, 8 tensors)

attention.in_proj_weight f4 [3, 1]
0	0x40218203	2.5235603
1	0x3fde61be	1.7373579
2	0x3fe03d06	1.7518623

attention.in_proj_bias f4 [3]
0	0xbebe40c7	-0.37158796
1	0x3e0b3985	0.1359616
2	0xbe29209e	-0.16516349

classifier.0.weight f4 [24, 66]
0	0xbe5bc6fe	-0.21462628
1	0xbf087d7f	-0.5331649
2	0xbee6d2f9	-0.45082834
3	0x3ec2ef58	0.3807323
4	0x3e24f896	0.16110453
5	0x3e169cc0	0.14708233
6	0xbef2252a	-0.4729398
7	0x3ed42382	0.4143334
8	0xbe035e24	-0.1282888
9	0xbd950310	-0.07275975
10	0xbf61a2d0	-0.8813906
11	0xbed9e28c	-0.42555654
12	0xbe424fe0	-0.18975782
13	0xbee97473	-0.45596656
14	0xbe475f0b	-0.1946985
15	0xbd069c63	-0.032863986
16	0xbee96d90	-0.45591402
17	0xbecf07f7	-0.40435764
18	0xbebf3bfd	-0.37350455
19	0x3e17c6ba	0.14821902
20	0x3e0e27c0	0.13882351
21	0xbe555a12	-0.2083514
22	0xbe30b239	-0.17255487
23	0xbe93a6ef	-0.28838298
24	0x3dbb0e37	0.09133571
25	0x3d81de93	0.06341281
26	0xbe74ad6e	-0.23894283
27	0xbd6d8a55	-0.05799325
28	0xbf67fc03	-0.90618914
29	0xbe71e3de	-0.2362208
30	0x3cd39d3e	0.025831815
31	0xbf1d7ed9	-0.6152168
32	0xbe52c29a	-0.20582047
33	0xbeeb922a	-0.46009952
34	0x3e0896b0	0.13338733
35	0xbed0f01e	-0.40808195
36	0xbe52461c	-0.20534557
37	0xbdf3fc28	-0.11913329
38	0xbc82ff1f	-0.015990792
39	0xbf2e6d60	-0.68135643
40	0xbe67d05b	-0.22638075
41	0x3e9a2983	0.30109796
42	0xbe9e50a8	-0.3092091
43	0xbec11a5c	-0.37715423
44	0xbe7e222f	-0.24817728
45	0xbdf9a978	-0.12190527
46	0xbe9babe3	-0.30404577
47	0x3dc4a68c	0.09602079
48	0x3e21b967	0.15793382
49	0xbe220379	-0.15821637
50	0xbed011ed	-0.40638676
51	0xbf1ee631	-0.62069994
52	0x3dce589e	0.10075496
53	0xbf2c58c8	-0.6732297
54	0xbe9be90d	-0.3045124
55	0x3e846bf3	0.2586361
56	0x3ece01b3	0.4023567
57	0x3eaa22bd	0.33229628
58	0xbf0fe89f	-0.56214327
59	0xbe42614f	-0.18982433
60	0x3e85a04a	0.26098853
61	0xbf3906e3	-0.72276133
62	0xbcba6a93	-0.022755897
63	0xbf1bfcc3	-0.6093256
64	0xbf103116	-0.563249
65	0x3ec0a0e0	0.37622738
66	0x3ebaaefd	0.3646163
67	0xbd1bc2a9	-0.03802744
68	0x3ed3cbc8	0.4136641
69	0xbdc5b7ca	-0.096541956
70	0x3e5f6afb	0.21818154
71	0xbea671f9	-0.3250883
72	0xbde44f9c	-0.11147997
73	0xbe21d03d	-0.15802093
74	0x3d483e9f	0.048887845
75	0x3d34b2d7	0.044115867
76	0xbea8c4c6	-0.32962626
77	0xbedfb157	-0.43689987
78	0xbeb94de5	-0.3619224
79	0xbe85c83b	-0.26129326
80	0xbd99b163	-0.07504537
81	0xbc352ef8	-0.0110585615
82	0xbe44b651	-0.19210173
83	0xbbac6fd3	-0.005262354
84	0xbea44133	-0.32080993
85	0xbe180406	-0.14845285
86	0x3d9614aa	0.0732816
87	0x3dc37ab3	0.095448874
88	0xbef03e07	-0.46922323
89	0xbc0eae0c	-0.008708488
90	0xbe3b1efe	-0.18273541
91	0xbd838738	-0.06422275
92	0xbe1a7dc3	-0.15087037
93	0xbe771103	-0.24127583
94	0xbd6b89f2	-0.0575046
95	0x3cb1a4ce	0.02168503
96	0xbc9acbba	-0.018895973
97	0xbeb1d62d	-0.34733716
98	0x3b4237f9	0.0029635413
99	0xbe33157c	-0.17488664
100	0xbf057880	-0.52136993
101	0x3ddaab1d	0.106771685
102	0x3e00043f	0.1250162
103	0x3da59e31	0.08086813
104	0xbe1d72ba	-0.15375796
105	0xbeecd2ec	-0.4625467
106	0xbe48afad	-0.19598265
107	0x3e102700	0.14077377
108	0xbe04c60d	-0.12966175
109	0xbd011597	-0.03151473
110	0xbe1ae7b2	-0.15127447
111	0xbdbe300a	-0.092865065
112	0x3dca54c6	0.098794505
113	0xbece6f49	-0.4031928
114	0xbe87f578	-0.26554465
115	0xbd7be14e	-0.061494164
116	0xbd1045f2	-0.035222955
117	0x3d083c2d	0.033260513
118	0xbf00d471	-0.5032416
119	0xbdfb502a	-0.122711495
120	0xbdb76141	-0.089540966
121	0x3d94fc32	0.07274665
122	0xbe320633	-0.17385177
123	0xbecc3e6c	-0.39891374
124	0x3d98555a	0.074381545
125	0x3f07ea73	0.53092116
126	0x3dcd76cc	0.10032424
127	0xbdef4398	-0.11682814
128	0xbda6020d	-0.0810586
129	0xbe4b68a3	-0.19864134
130	0xbdf7b0c2	-0.12094261
131	0x3df9d383	0.12198546
132	0x3ecefa49	0.40425327
133	0xbeb1af10	-0.34703875
134	0x3e30880d	0.17239399
135	0xbe391e43	-0.1807795
136	0xbf10169d	-0.56284505
137	0x3e27cddc	0.16387123
138	0xbde770b0	-0.1130079
139	0xbdf37541	-0.11887599
140	0xbd20bb38	-0.039241046
141	0x3cdb3cd3	0.026762402
142	0x3da38631	0.07984579
143	0xbd92ea37	-0.07173579
144	0x3e42026d	0.18946238
145	0xbebcd165	-0.36878505
146	0xbf04d866	-0.518927
147	0x3ccd3199	0.025048064
148	0x3f024afe	0.5089568
149	0x3dba181d	0.090866305
150	0xbe10a825	-0.14126642
151	0x3ee3f4e7	0.44522783
152	0xbf169831	-0.58825976
153	0xbeb9d2b9	-0.3629358
154	0x3ec33fec	0.38134706
155	0xbe8d388a	-0.27582198
156	0x3e8c396d	0.27387562
157	0xbccce124	-0.0250097
158	0x3e34238d	0.17591687
159	0x3e43ea66	0.19132385
160	0x3e882e3f	0.26597783
161	0xbf088f01	-0.53343207
162	0xbe99ab0d	-0.30013314
163	0x3ebcacd5	0.3685061
164	0xbe5e1e1f	-0.21691178
165	0xbda1f07e	-0.07907198
166	0x3e980f45	0.2969915
167	0xbf282f87	-0.6569752
168	0x3e60ce93	0.21953802
169	0xbd227239	-0.039659712
170	0x3e0d964d	0.13826866
171	0x3e4499eb	0.1919934
172	0xbe996719	-0.2996147
173	0xbd00bc0d	-0.03142934
174	0x3f0bc5de	0.54598796
175	0xbf1d8311	-0.61528116
176	0x3e201b76	0.15635476
177	0x3f88b2ab	1.0679525
178	0xbd625f7f	-0.055266853
179	0xbe8339d7	-0.25630066
180	0x3d54f9af	0.05199593
181	0x3ec0bfac	0.37646234
182	0xbe925321	-0.28579047
183	0x3c5d51f3	0.013508308
184	0x3e4b4be5	0.1985317
185	0x3d13a815	0.036048967
186	0xbe5b77aa	-0.21432367
187	0xbe554321	-0.20826389
188	0xbe5375f9	-0.20650472
189	0xbc49228f	-0.012276306
190	0x3f32037d	0.6953657
191	0xbdda57f5	-0.10661308
192	0x3f5251bc	0.82155967
193	0xbf41f3b6	-0.757625
194	0xbdb3d7c0	-0.087813854
195	0x3ed4c3c0	0.41555595
196	0xbd8b2927	-0.067949586
197	0x3d550946	0.052010797
198	0xbe632449	-0.2218181
199	0xbe0309bc	-0.12796682
200	0xbebb6bdf	-0.36605737
201	0xbee8dd40	-0.454813
202	0x3f3989b2	0.7247573
203	0x3e9c20d5	0.304938
204	0xbef8d9c0	-0.4860363
205	0x3daa0ee0	0.083036184
206	0x3e71e8ee	0.23624012
207	0xbe17ef8b	-0.14837472
208	0x3d906de8	0.07052213
209	0xbdfa4b2d	-0.1222137
210	0x3e0f5052	0.13995484
211	0x3e631ecd	0.22179718
212	0x3e537987	0.20651828
213	0xbf4c7b74	-0.79875875
214	0xbec5423b	-0.38527092
215	0x3f1c8ca8	0.61152124
216	0xbec63c7d	-0.38718024
217	0xbefae68e	-0.49004024
218	0x3f47eda0	0.7809696
219	0xbe5cfe9a	-0.21581498
220	0x3db39bde	0.08769964
221	0x3d46cdd6	0.048536144
222	0xbf196e9e	-0.59934413
223	0xbde8e86c	-0.11372456
224	0xbe942157	-0.28931686
225	0xbe085f83	-0.13317685
226	0x3cf6f735	0.030147174
227	0x3eb1dead	0.347402
228	0xbe1704d7	-0.1474794
229	0x3e3091f5	0.17243178
230	0x3e3a3a79	0.18186368
231	0x3decff04	0.11572078
232	0xbf1418b3	-0.5785019
233	0x3e31153e	0.1729326
234	0xbdfc92fb	-0.12332722
235	0xbd4322f1	-0.047640745
236	0x3e3e9c3a	0.18614283
237	0x3e722191	0.23645617
238	0xbf47d763	-0.7806303
239	0xbf1b0934	-0.6056092
240	0xbe80d834	-0.2516495
241	0xbe46e655	-0.19423802
242	0x3e5204f6	0.20509705
243	0xbef30df1	-0.47471574
244	0x3d9b07b1	0.075698264
245	0xbcbb812c	-0.022888742
246	0xbd6f5172	-0.05842728
247	0x3ea57478	0.3231542
248	0x3e2e782c	0.1703803
249	0xbef33efa	-0.47508985
250	0xbec37719	-0.38176802
251	0xbe50b4ba	-0.20381442
252	0x3d64fcfc	0.055905327
253	0xbe319f01	-0.17345811
254	0xbf315f03	-0.692856
255	0xbe3d70d5	-0.18500073

classifier.0.bias f4 [24]
0	0xbe753b10	-0.23948312
1	0xbc98fb7b	-0.018674603
2	0x3e861cf6	0.2619397
3	0xbdfc002d	-0.12304721
4	0x3c9940e7	0.018707706
5	0x3e55d025	0.20880182
6	0x3da3b234	0.07992974
7	0x3e57f6e3	0.21090274
8	0xbd9171cc	-0.07101783
9	0xbcac460f	-0.0210295
10	0xbe14fec5	-0.14550312
11	0xbef76608	-0.4832003
12	0xbf055020	-0.52075386
13	0x3e7b39ad	0.2453372
14	0x3dc21a6a	0.09477694
15	0xbec466a0	-0.38359547
16	0xbdf97668	-0.12180787
17	0xbebdaf3d	-0.3704776
18	0x3e0c5725	0.13705118
19	0x3e42b168	0.19012988
20	0xbea9bb67	-0.3315079
21	0x3e8024d7	0.25028107
22	0xbed6bd13	-0.41941127
23	0x3e79b13f	0.2438402

classifier.3.weight f4 [8, 24]
0	0xbdfb6544	-0.12275174
1	0x3e3d19b2	0.18466833
2	0x3e7ae68a	0.24502006
3	0xbe8ea952	-0.27863556
4	0x3d8a0df6	0.06740944
5	0x3e05e66a	0.13076177
6	0x3e9261c6	0.2859022
7	0xbec886c1	-0.3916531
8	0xbc9ca0fa	-0.019119728
9	0xbe0823c3	-0.13294892
10	0x3f11519b	0.56765145
11	0x3dce0e97	0.100613765
12	0xbe21b3bc	-0.1579122
13	0xbd360b2c	-0.044444248
14	0x3ed4f2e1	0.41591552
15	0x3ebd8f63	0.37023458
16	0xbdd31d21	-0.1030829
17	0x3ee1985f	0.44061562
18	0x3ef8c49d	0.48587504
19	0xbd9ca00b	-0.07647713
20	0x3cf460c2	0.029831294
21	0xbd871652	-0.06596054
22	0x3e075550	0.13216138
23	0x3ebc24ff	0.36746976
24	0x3e773e95	0.24144967
25	0x3ec1f1c7	0.37879774
26	0x3eb6752c	0.3563627
27	0xbef0a856	-0.4700343
28	0x3ec1fe74	0.37889445
29	0x3e88a73c	0.2669009
30	0x3f1e9041	0.61938864
31	0xbe65750f	-0.22407936
32	0x3ddb3426	0.10703306
33	0xba61ef90	-0.00086187664
34	0x3f5013ea	0.81280386
35	0xbe5c8a12	-0.21537045
36	0xbe02c199	-0.12769164
37	0x3ef47c3a	0.47751027
38	0x3f6219d2	0.8832065
39	0x3f519b01	0.8187714
40	0xbe0e5cf1	-0.13902642
41	0x3f66261a	0.8990189
42	0x3f87b775	1.0602862
43	0x3e944635	0.28959814
44	0xbe43e251	-0.19129302
45	0x3e2f6700	0.17129135
46	0x3dfa23e2	0.12213875
47	0x3f094950	0.5362749
48	0xbd956043	-0.07293751
49	0xbed41591	-0.41422704
50	0x3e9d04f2	0.30667835
51	0x3f0e7943	0.5565378
52	0x3ecce5a8	0.40018964
53	0x3f401374	0.75029683
54	0xba861b94	-0.0010231608
55	0x3f635d2c	0.88814044
56	0x3ee50dad	0.44736996
57	0x3e85ce98	0.2613418
58	0xbf25408c	-0.64551616
59	0x3ebabdd0	0.3647294
60	0x3f0465ca	0.5171782
61	0xbd7eaedf	-0.06217849
62	0xbebb4324	-0.36574662
63	0xbec76f1c	-0.38951957
64	0x3eef98c0	0.46796227
65	0xbf0cffb3	-0.55077666
66	0xbf2b66d7	-0.66953796
67	0x3ca47fd1	0.020080479
68	0xbc1731e0	-0.0092282
69	0x3e9486a2	0.29008967
70	0x3dd24e18	0.102688015
71	0xbdd1bc1c	-0.10240957
72	0x3f45c81e	0.7725848
73	0x3e6061ff	0.21912383
74	0x3eb395eb	0.35075316
75	0xbe9b90e4	-0.3038398
76	0x3f3d7306	0.74003637
77	0x3f79685a	0.9742485
78	0x3d1e306e	0.038620405
79	0xbe12556b	-0.14290397
80	0x3e0a6684	0.13515669
81	0x3ec63afa	0.3871687
82	0xbeb6851c	-0.3564843
83	0xbf693bac	-0.9110668
84	0xbf1bc36a	-0.60845053
85	0x3f0515aa	0.5198618
86	0xbd433673	-0.04765935
87	0xbf2e1b51	-0.6801043
88	0x3e39be41	0.18138982
89	0xbedd063b	-0.43168816
90	0xbf1b60c3	-0.6069452
91	0x3efc8d9f	0.49326798
92	0xbf8a7ff2	-1.0820296
93	0x3f52f47c	0.82404304
94	0x3e75c3d0	0.24000478
95	0x3dfac00e	0.12243663
96	0xbecca3af	-0.3996863
97	0x3e7b24dd	0.24525781
98	0xbd7db7ab	-0.061942738
99	0xbda93d84	-0.08263686
100	0xbeb402a5	-0.35158268
101	0xbe39eb91	-0.18156268
102	0x3e87b541	0.26505473
103	0xbf0e64e5	-0.556227
104	0xbeed2c3e	-0.46322817
105	0xbf35f41d	-0.7107561
106	0x3f67f837	0.9061312
107	0xbdf030fb	-0.11728092
108	0xbe885d5a	-0.26633722
109	0x3e10ea56	0.14151892
110	0x3f4f44a9	0.8096414
111	0x3f3b96bf	0.73276895
112	0xbf12cd7c	-0.57344794
113	0x3f794737	0.9737429
114	0x3f9358ad	1.1511437
115	0xbef16fe6	-0.47155684
116	0x3e5e4a04	0.21707922
117	0xbe74cde5	-0.23906668
118	0x3e5e1dcd	0.21691056
119	0x3ec66b6d	0.38753834
120	0x3f38b25c	0.72147155
121	0xbd69cb6a	-0.057078756
122	0x3eb3aa11	0.35090688
123	0xbea3a319	-0.3196037
124	0x3f17537c	0.5911176
125	0x3f4bfade	0.7967967
126	0xbda0b3da	-0.07846804
127	0x3d755d0c	0.05990319
128	0x3f0d00a0	0.5507908
129	0x3eea3d71	0.4575
130	0xbec80134	-0.39063418
131	0xbf213052	-0.62964356
132	0xbedd5a82	-0.43233114
133	0x3ed1086e	0.40826744
134	0xbd2be43a	-0.0419657
135	0xbf31fef9	-0.6952968
136	0x3e51ac0b	0.20475785
137	0xbf29be0d	-0.6630562
138	0xbed9f5b7	-0.42570278
139	0x3e77363c	0.24141783
140	0xbf62f12e	-0.8864926
141	0x3f1f1181	0.62136084
142	0xbd4a8028	-0.049438626
143	0xbcef9849	-0.02924742
144	0xbf3e5131	-0.7434264
145	0x3d4be7ec	0.049781725
146	0xbe94e7c1	-0.29083064
147	0x3edae3fd	0.42752066
148	0xbed42f1a	-0.41442186
149	0x3e4c993f	0.19980334
150	0xbe36f6cf	-0.17867588
151	0x3eb701cb	0.35743555
152	0xbe69fcb8	-0.22850311
153	0x3e0b7082	0.13617137
154	0x3e75412c	0.23950642
155	0x3f72de63	0.94870585
156	0x3f22f2de	0.63651836
157	0xbf31f38b	-0.6951224
158	0xbe8fe745	-0.28106132
159	0x3eacca70	0.33748198
160	0x3e562c5c	0.2091536
161	0x3ebd5797	0.36980888
162	0x3edbd51f	0.42936036
163	0xbee3458b	-0.44388995
164	0x3f274b16	0.6534895
165	0xbd25112b	-0.040299576
166	0x3bb4c619	0.005516779
167	0xbc67f73c	-0.014158066
168	0xbe14be15	-0.14525636
169	0xbcfefd7a	-0.031126726
170	0x3db1b6c7	0.0867744
171	0x3ee831d2	0.4535051
172	0xbf204e50	-0.62619495
173	0xbe44a264	-0.19202572
174	0xbe2e06fc	-0.16994852
175	0x3e986bef	0.29769847
176	0xbeb63594	-0.35587752
177	0x3e93cdaa	0.28867847
178	0xbeb80fea	-0.3594964
179	0x3f1e4868	0.61829233
180	0x3e1ce225	0.15320642
181	0xbecfc23e	-0.40577883
182	0xbe9ac2b5	-0.30226675
183	0xbf30e3fb	-0.6909787
184	0x3d336a6e	0.04380267
185	0xbdc6f440	-0.09714556
186	0xbe34bfc0	-0.17651272
187	0x3ca4cd01	0.020117285
188	0x3e6540da	0.2238802
189	0xbe54832a	-0.2075316
190	0x3d0afa89	0.033930335
191	0xbf1e9ced	-0.619582

classifier.3.bias f4 [8]
0	0x3d75ab61	0.059977893
1	0x3d9bbb1e	0.07604049
2	0x3f0b9912	0.5453044
3	0xbe77f3f4	-0.24214154
4	0x3e0deedb	0.13860647
5	0xbe0a6aec	-0.1351735
6	0x3dcffad5	0.10155264
7	0x3ed9f59b	0.42570195

classifier.6.weight f4 [3, 8]
0	0x3efee2fa	0.49782544
1	0x3e41a45c	0.18910354
2	0xbf962c25	-1.1732222
3	0xbe806842	-0.25079542
4	0x3ecb9b8f	0.3976712
5	0xbf0d0a52	-0.5509387
6	0xbdc043bc	-0.09387919
7	0xbf320fe9	-0.69555527
8	0xbf6dcec4	-0.92893624
9	0xbf79a06f	-0.9751043
10	0x3ef5cc34	0.48007357
11	0xbf2d9552	-0.6780597
12	0xbf536cbc	-0.8258779
13	0xbf0cf787	-0.55065197
14	0x3f3ab6a8	0.7293496
15	0x3f0b89c6	0.545071
16	0xbcd7ac12	-0.026327167
17	0xbd4477a4	-0.04796566
18	0xbd62a6c2	-0.055334814
19	0x3f0c0e9b	0.54709786
20	0xbe54c41c	-0.20777935
21	0x3f57c647	0.8428692
22	0xbf4fa2f2	-0.8110801
23	0xbee73d09	-0.45163754

classifier.6.bias f4 [3]
0	0x3e0aece1	0.13566925
1	0x3ea4dc9f	0.3219957
2	0xbece72e4	-0.4032203
