models/AutoEn_66_18_ReLU_10_justEncoder_epoch_45.pt (torch, 13792 bytes, 4 tensors)

ffn.0.weight f4 [33, 66]
00000000: e796 92bc c0ac 4bbc 86db 5e3d 466a fbbd
00000010: 1a5b 21bd 9a26 5e3d edcf 2d3f 2ef9 923e
00000020: 5d55 86be ba1e 04be cb94 5c3c a796 b53c
00000030: 4d46 183c b8d6 62be a72f eebd 4920 fe3d
00000040: 46b9 04bc 2b3b 223e ceab a63d 7a3c 95bd
00000050: c91a 243e 5764 f43d 4f8a a23e bbca 413d
00000060: a66a cdbd 4a7a 5a3d abba 6d3d 2736 87bd
00000070: c7a3 6b3c d4ef 0c3f 7941 853e 6400 10bc
00000080: 2111 0c3e 2de1 673e 2f3e 003e 9077 a73e
00000090: eb05 75bb 8e51 f53c a53f 82be 6014 923e
000000a0: 156c 173c 64d5 3d3e 9dd4 bbbd 99cc 473d
000000b0: 72bf ec39 ec0f 0e3e 27a2 d13d 9367 2c3e
000000c0: 2511 113d 63f9 b33d f485 213e 04c4 2cbe
000000d0: bcb2 533d 9acf 213c ed1a 0abe fd47 4f3d
000000e0: c298 d2bd 0961 3c3d d9a7 32be 43ae bb3c
000000f0: 0f86 8b3b cce9 033e 8d1e 0cbd 0cfc 5ebe
00000100: 8685 b53d a04d 6bbe 1278 c1ba 8c7e adbd
00000110: 1e65 9f3d bd63 05bd e9d6 ecbc 0393 113d
00000120: ab80 2b3e 7bac 193d ef9f 5f3e d152 67be
00000130: 0fbe a83d edad 383c 421f a63e 61d9 eb3d
00000140: fbe5 2dbd 2e12 d5bd 59e7 ac3d f3c1 af3d
00000150: a82c 1bbc 51a5 69bd 0dd1 183d 944e f8bd
00000160: 11a3 b63e 3d70 21be a8ee 92be 343a 49bd
00000170: e4e9 4c3e a443 0dbe 08ac b1bd 8191 4ebd
00000180: a122 913d 093b c8bd 6e58 ee3d 095f bf3e
00000190: a887 5ebe ecdc 5d3c f4c8 2f3e 1447 573d
000001a0: e807 0d3f 671a 34bf 62ba 803d 28fa efbe
000001b0: bdf5 ed3d a35e 863e 37de 75be fdfc c93d
000001c0: 7bc2 1d3d d49d 97bd bd67 cb3d 12f4 e3bc
000001d0: 1f6a e33d 4b21 c1be fc46 a93e db92 8dbe
000001e0: cf8a 23be afbc b83d 0307 513e 7a33 1fbd
000001f0: 6e6d 0c3d a092 b93c d388 553a a553 523d
00000200: d915 a73d e457 ffbd 4a3d 3d3e 7d74 6ebd
00000210: 8e8e 55bc 1df1 643f 77d1 72bd 8a8c 8e3a
00000220: d458 dd3c 90b2 e0bc cee0 b8bd 4e03 e63c
00000230: c79c 473b a003 3dbe f7b1 89bd 8c8d 56bd
00000240: 5afb ed3c 30aa 61bc b89e 273d 10cb 733d
00000250: e71e 573c 8121 9bbd 5192 a23d 3b4d e0bc
00000260: a8d1 743c eb43 e13e 41b9 c03d 8c8f 51be
00000270: 9721 ad3d 4a92 cc3d 53f9 fb3d 45fe 95bd
00000280: 1ca8 9fbd fcda 083e 9d37 953e 2002 66be
00000290: 4381 0ebf 9b16 ae3d c273 c4bd cefe f7be
000002a0: 3895 27be f167 293c f75a d33d 9fe3 aabd
000002b0: 3d28 90bc cea2 023d a0a6 12bd 5170 a2bd
000002c0: e80a b3bc 533c 05be 4c17 09bd 6453 a2bb
000002d0: 5a84 ecbd 5da3 31be ab32 4d3d c6ac 883b
000002e0: 8dfb dc3d 140c 0ebd dc76 66bd 2549 2a3c
000002f0: 8b18 63be 6286 df3d c18f a7bd 4466 c7bd
00000300: 9c38 52bd 1a0c 75be d427 adbd 1c69 8f3d
00000310: 2e44 d2bd 2629 713a 59c2 2c3d 754e 89bc
00000320: 6ad7 36be a799 1dbe 4f29 b43d 356f 60bd
00000330: e768 fc3d 654d 293e b327 ce3e b35e 123e
00000340: 8bd4 8d3d ec71 163c ba4c 3b3d e158 bdbe
00000350: c042 d33d d305 d93b 6a72 213c 6765 6bbd
00000360: a516 dc3d 6d5e 38bd 1648 8cbd 7b9d 783e
00000370: c653 25bd c0fc 4bbe 00b8 8d3e 510d 323e
00000380: 2201 7d3e a256 33be af6c 5f3d b508 f7bd
00000390: b515 80be 6b99 9abc 869b 36be 9aa4 0c3d
000003a0: 9a5a a1bd ab32 2d3e aa41 d13c c4e1 41bd
000003b0: 0ac7 333e 0880 7abe 9e7c 943c 6f02 623e
000003c0: dbf2 1f3d 1ea0 13be 0434 1f3e 9c8c 2cbe
000003d0: c4d8 d9bc 9562 65bd 3387 5ebc eac0 613e
000003e0: 1190 aabd a6d6 1cbd d31b 003e 5ac7 5bbe
000003f0: 19c9 ba3d 9676 003d 148f e6bc 7a17 e3bd
-0.017894221 -0.0124313235 0.054408573 -0.122761294 -0.03939352 0.054236032 0.67895395 0.28705734
-0.26237002 -0.12902346 0.013463209 0.022166563 0.009294105 -0.22152221 -0.11630183 0.12408502
-0.008100813 0.15842883 0.08138238 -0.072869256 0.16025843 0.11933201 0.31746146 0.04731248
-0.10030107 0.05333928 0.05803935 -0.066021256 0.014382309 0.5505345 0.26026514 -0.008789156
0.13678409 0.22644491 0.12523721 0.32708406 -0.003738756 0.029946115 -0.25439182 0.2853117
0.009242077 0.18538433 -0.09171412 0.048779104 0.00045156066 0.13873261 0.10236006 0.16836385
0.03541674 0.08787801 0.15773755 -0.16871649 0.051684126 0.009876156 -0.13486834 0.050605763
-0.102830425 0.045990977 -0.17446841 0.022910243 0.0042579244 0.12882155 -0.034208823 -0.21775836
0.08863358 -0.2297883 -0.0014760515 -0.084714025 0.077829584 -0.03256582 -0.02891107 0.035540592
0.16748302 0.037518006 0.21838354 -0.22590186 0.08239376 0.011271936 0.32445723 0.11516071
-0.042455655 -0.10403858 0.084425636 0.08581915 -0.009471096 -0.057042424 0.03730874 -0.121243626
0.35671285 -0.15765472 -0.28697705 -0.049127772 0.20011097 -0.13795334 -0.086753905 -0.050431732
0.07086683 -0.09776885 0.116379604 0.37377194 -0.21731436 0.013541441 0.17166501 0.05255802
0.5509019 -0.70352787 0.0628555 -0.46870542 0.116191365 0.26244077 -0.2401055 0.09862707
0.03851555 -0.0740315 0.09931896 -0.027826343 0.11104225 -0.37720713 0.3306197 -0.27651104
-0.1597092 0.090203635 0.20412831 -0.03886745 0.034284048 0.022652924 0.00081456936 0.0513493
0.08158464 -0.12467936 0.18480411 -0.05821656 -0.013034476 0.8943041 -0.059281792 0.0010875624
0.027019896 -0.027428895 -0.09027253 0.028077748 0.0030458437 -0.18458414 -0.06723397 -0.052381083
0.029050518 -0.013773486 0.04092285 0.059519827 0.013129926 -0.0757475 0.07938064 -0.027380576
0.014942564 0.4399713 0.094103344 -0.20464915 0.084536724 0.0998884 0.12303414 -0.07323889
-0.07795736 0.13364786 0.29143992 -0.22461748 -0.5566599 0.085004054 -0.095923916 -0.48436588
-0.16365516 0.010339723 0.103200845 -0.083441965 -0.017597312 0.031893544 -0.035803437 -0.07931579
-0.021855786 -0.13011293 -0.033469483 -0.0049537886 -0.115486816 -0.17347474 0.05009715 0.004170987
0.10790167 -0.034679487 -0.056265697 0.010393416 -0.22177331 0.10914303 -0.08181716 -0.097363025
-0.05132352 -0.23930398 -0.08454862 0.0700247 -0.102669105 0.0009199552 0.042177532 -0.016761044
-0.17855611 -0.15390645 0.087969415 -0.054793555 0.12324696 0.1653343 0.40264663 0.14293937
0.06925305 0.0091824345 0.04572747 -0.36981872 0.10315466 0.0066230088 0.009853939 -0.05746975
0.107465066 -0.045011926 -0.06849687 0.24278824 -0.040363096 -0.19920635 0.27679443 0.17387892
0.24707463 -0.17513517 0.054547008 -0.120622076 -0.2501656 -0.018871984 -0.17832765 0.034336664
-0.07878609 0.1691386 0.025544006 -0.047334448 0.17556396 -0.24462903 0.018125828 0.22071241
0.039049964 -0.14416549 0.15547186 -0.16850513 -0.02659262 -0.05600222 -0.013582039 0.22046247
-0.0832826 -0.038290642 0.12510614 -0.21462765 0.091203876 0.031363092 -0.028144397 -0.11088462

ffn.0.bias f4 [33]
00000000: 1c7e 483e 8c89 be3d b468 31bc c7a2 8e3d
00000010: fab2 b73d db2f 5d3e a73d 653d ac9d eabd
00000020: 7619 4a3c bcdd e3bc 3cc6 463d b808 32bd
00000030: 3d1d 0c3e ea75 6a3d ae80 f6bd f48e 2bbc
00000040: 75b0 2cbd 8f1e 0c3e d141 573c dfe3 033d
00000050: 144e 023e 8634 ae3d e821 d9bd 47a9 0f3d
00000060: d233 c83d 5b79 9abd 58b9 21be a81d aa3d
00000070: 6fbf d13d d0d6 423b e089 47bd d08a 5ebd
00000080: d598 44bd
0.19579357 0.09303579 -0.010828186 0.06964641 0.08969684 0.21600287 0.055967 -0.11455855
0.012335172 -0.027815692 0.048528895 -0.043465346 0.13683029 0.057241358 -0.120362625 -0.010471094
-0.04216047 0.13683532 0.01313825 0.032199737 0.12725097 0.08506112 -0.1060217 0.035073545
0.09775509 -0.07542678 -0.1579336 0.08306438 0.10241591 0.002973009 -0.048715472 -0.0543316
-0.047997314

ffn.3.weight f4 [18, 33]
00000000: 6bb6 413d d5d8 da3c ad3c 6ebd 4616 77be
00000010: a3c8 bebd 4350 cb3c 8e86 76be db6b 2a3e
00000020: 5321 e8bd 04f5 fabc 22e7 2fbe 2e20 65bc
00000030: e902 9e3d 5c92 693e a418 b03e 37cc 093e
00000040: 364c afbd 6cce 273e 7745 cdbd f30b 2e3e
00000050: 0436 73bd 9a87 b63d abfc fd3d f6ff 06bd
00000060: d036 a33e 5788 4c3e 4f72 3d3e 16c2 1f3e
00000070: e876 f73d f5e7 db3d 638c d53d 7524 9c3e
00000080: 9123 26be ed6c 4f3e 8067 823d 7612 b03d
00000090: e0ad 20be c5b2 2a3e 59ae e73d e37e 68bd
000000a0: 61dc cc3d 8b98 05be 9d0e fb3e a263 743e
000000b0: 2177 0a3e c0ed 4a3d 41f0 c5bc f826 713e
000000c0: 4b89 a1bd 252b 90be 901e 113e ede4 663e
000000d0: d75b 45ba bc5e 5b3d 8b04 ffbd 1645 5c3b
000000e0: 2663 353e a580 5e3e 38d0 27be 7bd4 b03e
000000f0: 70f5 ec3c a6fb 0d3e 6d59 25bd ec92 273e
00000100: fa39 1bbb f4aa 253e 5ef0 f63d 5ff1 3c3e
00000110: 10da b93e 316f c5bd 5606 02be 1936 543e
00000120: 112b 0b3e fb8e 5c3e e057 9a3a 62c2 85be
00000130: eaba 393e 2285 3e3e 1d05 abbd ba67 87be
00000140: 3077 443e 4a46 f73c eca1 303e ccbf 823e
00000150: 31d3 103d b167 4cbd f263 75bd ca8d f43d
00000160: 1515 1c3e bb42 fe3c d492 1abd 48ab 7e3e
00000170: cb07 613e 568b 863e a8ab 2d3e fb97 84bd
00000180: dd70 b0bc 7895 85bd 43c1 303e 4a9c a03b
00000190: 7602 683e d670 a1bd c547 823e 1c8c a1bd
000001a0: 410e cebd b385 3d3d 3368 ddbc a611 933e
000001b0: 235e af3e 90e7 f4bc 9a7f 7d3d fad8 493e
000001c0: 50e1 143c 99c1 dabd 5c77 0d3d d42f 2ebe
000001d0: 29c3 423e 703d 263d e399 273e 8114 7a3d
000001e0: 3966 893e d9e8 933e 268a cd3d af6d 533d
000001f0: 54f4 81bd dc26 433e 5189 483e 9913 2dbd
00000200: db50 773d 4c8d f1bd 4a5b d23d 36dd 4abe
00000210: 6a26 a6bd 7462 d8bd 4f19 9abd 173c 9c3d
00000220: 767a 89bd eb61 9dbd 22b9 12bb 0a03 6bbe
00000230: 0ca8 e7bc a983 9fbc 1d13 26bd db31 32be
00000240: b7e2 90be ab67 13bd 5258 56be cffa 09be
00000250: 5b45 dabd 1c7b d3bc b9f5 4fbc 76af 3b3d
00000260: 230f 96bd b85c c2bd bfe0 1a3d 4c47 8ebe
00000270: d8d0 5cbd 91ca 96be 3a46 febd 7fbf 17be
00000280: 3bee 7c3d 746c 483d 7966 2a3d 36f1 5fbc
00000290: 0478 32be 5ef2 0fbc 0c6e 3f3d a68d 90be
000002a0: f008 43be 6b9f e73c 11d3 04bd 569d 4fbe
000002b0: 111d 68be 64f3 783a 24ea 1cbe 3cc1 68be
000002c0: 87ff 93bd 0b57 a5bd da01 c5bd 0380 783c
000002d0: 6600 1abe 9e5d d93d ca6f f0bd 3efd 71be
000002e0: dfae 103c e917 a3bc 7582 5bbe beba 82bc
000002f0: c9c0 11be b443 14be f762 993d af76 45be
00000300: f140 d7bd 35df 80be 4464 a9bd b65b 35bd
00000310: 74da 1cbe d3e9 4dbe 3d87 39be 3752 5e3e
00000320: 7cc5 85bd 2bd8 743e 8af1 cbbe 9934 00bf
00000330: 9a94 0dbf d61e c13e 2558 963e a341 e6be
00000340: 236a 07bf 53b4 273e 02a9 223c 8150 c2bd
00000350: f390 2dbf 929e 1fbe 397d b9be 8081 873e
00000360: 5385 f6bd ed7c 11bf 76ff bf3e 2038 c03d
00000370: 7805 2abe 060c 49bf 0579 7bbe 5571 68be
00000380: a776 04bf d59b 8a3e a131 04bf 08ad 40bf
00000390: ada9 01bf f94e 17bf 0e98 cb3c 5862 a33e
000003a0: ad7e 103c 96e4 a5bd e061 153e c45a 0c3e
000003b0: f33b 723e c19d 9e3d 434a 0fbe 42f5 cbbd
000003c0: 63ab 11be 08c2 2b3e 9e49 0dbe 2d66 353e
000003d0: 038a 9e3e bcc8 1bbb 17bd 813e 0fd0 1e3e
000003e0: d02d 9f3e 96a1 8d3d 21d5 f33d cdb7 b33e
000003f0: 9be4 203e 2635 0b3e 5f7f ab3d 8316 893d
0.047293108 0.026714722 -0.058163334 -0.2412959 -0.09315612 0.024818545 -0.24074766 0.16642706
-0.11334481 -0.03063441 -0.17178014 -0.013984723 0.07715399 0.22809738 0.343938 0.13456808
-0.08559458 0.16387337 -0.10023015 0.16996746 -0.059377685 0.08912583 0.12401708 -0.032958947
0.31877756 0.19973885 0.18500637 0.15601382 0.120832264 0.10737602 0.10427167 0.30496565
-0.16224505 0.20256396 0.06367397 0.08597271 -0.15691328 0.16669758 0.11312551 -0.056761634
0.100029714 -0.13046472 0.49034587 0.23866132 0.13522007 0.049543142 -0.024162414 0.23550022
-0.07887515 -0.28157917 0.14171815 0.22548266 -0.0007528639 0.053557143 -0.124520384 0.0033610514
0.17713603 0.21728761 -0.16388023 0.3453711 0.028925627 0.13865528 -0.040368486 0.1636464
-0.002368568 0.16178495 0.12057565 0.18451451 0.3629918 -0.09640349 -0.1269773 0.20723762
0.13590647 0.21538918 0.0011775456 -0.26124865 0.18137708 0.18605474 -0.08350585 -0.26446325
0.19186091 0.030184884 0.17249268 0.25536954 0.035357658 -0.049903575 -0.05990977 0.119411066
0.15242417 0.031037679 -0.037737682 0.24870026 0.21975629 0.2627818 0.16960013 -0.064743005
-0.021538192 -0.065226495 0.17261223 0.0049014436 0.22657189 -0.0788285 0.2544538 -0.07888052
-0.100613125 0.046270084 -0.027027225 0.28724402 0.34251508 -0.029895574 0.06188927 0.19711676
0.009086922 -0.10681457 0.034537658 -0.17010432 0.1901976 0.040585935 0.16367297 0.06105471
0.26835802 0.28888586 0.10036115 0.051618274 -0.0634543 0.19057792 0.19583632 -0.042255018
0.060379844 -0.11794528 0.10271318 -0.19810948 -0.08112796 -0.105656534 -0.075243585 0.07628649
-0.06712811 -0.07684692 -0.002238818 -0.22950378 -0.028278373 -0.01947196 -0.04054557 -0.17401831
-0.2829797 -0.035987537 -0.20932129 -0.13474582 -0.1065776 -0.025815539 -0.012692862 0.04582163
-0.07327106 -0.09490341 0.03781199 -0.2778877 -0.053910106 -0.2945142 -0.124157384 -0.14819144
0.06175063 0.048931554 0.04160163 -0.013668349 -0.17428595 -0.008785812 0.04673581 -0.2823307
-0.19046378 0.028274259 -0.03242785 -0.20274863 -0.22667338 0.0009496717 -0.15323693 -0.22729963
-0.07226472 -0.08073243 -0.09619494 0.015167239 -0.15039214 0.10613559 -0.11740072 -0.2363176
0.008830755 -0.019908862 -0.21436484 -0.015958186 -0.14233698 -0.14478952 0.07489579 -0.19283555
-0.105104335 -0.25170293 -0.08271077 -0.044276915 -0.15317708 -0.20108728 -0.18117996 0.2171105
-0.06531808 0.23910587 -0.39832717 -0.5008026 -0.55304873 0.37718838 0.29364124 -0.44971952
-0.52896327 0.16377382 0.00992799 -0.09488011 -0.677993 -0.15587834 -0.3622835 0.26465988
-0.12037148 -0.56831247 0.3749959 0.09385705 -0.16603649 -0.7853397 -0.24557884 -0.22699483
-0.5174355 0.27072015 -0.5163823 -0.75264025 -0.5064953 -0.5910488 0.024852779 0.31910968
0.008819264 -0.0810024 0.14588118 0.137065 0.23655681 0.07744933 -0.13993172 -0.099588886
-0.14225535 0.16773236 -0.13797614 0.17714758 0.3096467 -0.002377077 0.25339577 0.15509056
0.3108964 0.06915586 0.119058855 0.35101166 0.15712206 0.13594493 0.083739035 0.06693747

ffn.3.bias f4 [18]
00000000: 2938 953e 5e68 ab3e b8ba a33d 7dab 8a3d
00000010: 41ac 90be 7f2c d0bd a8e9 01be 7461 a1bd
00000020: ca7c 613e 8018 c93e 020f 4a3e a89a 7e3e
00000030: 55d3 903d a7c5 5b3e 86bb 343c 4ee6 11be
00000040: 7cb4 d63c afcd 243e
0.2914441 0.33478063 0.07994598 0.0677099 -0.2825642 -0.10164737 -0.12686789 -0.07879916
0.2202026 0.39276505 0.19732288 0.24863684 0.070715584 0.21462117 0.011031037 -0.1424801
0.026209109 0.16094087
