models/AutoEn_66_18_ReLU_10_epoch_45.pt (torch, 26568 bytes, 8 tensors)

encoder.ffn.0.weight f4 [33, 66]
-0.017894221 -0.0124313235 0.054408573 -0.122761294 -0.03939352 0.054236032 0.67895395 0.28705734
-0.26237002 -0.12902346 0.013463209 0.022166563 0.009294105 -0.22152221 -0.11630183 0.12408502
-0.008100813 0.15842883 0.08138238 -0.072869256 0.16025843 0.11933201 0.31746146 0.04731248
-0.10030107 0.05333928 0.05803935 -0.066021256 0.014382309 0.5505345 0.26026514 -0.008789156
0.13678409 0.22644491 0.12523721 0.32708406 -0.003738756 0.029946115 -0.25439182 0.2853117
0.009242077 0.18538433 -0.09171412 0.048779104 0.00045156066 0.13873261 0.10236006 0.16836385
0.03541674 0.08787801 0.15773755 -0.16871649 0.051684126 0.009876156 -0.13486834 0.050605763
-0.102830425 0.045990977 -0.17446841 0.022910243 0.0042579244 0.12882155 -0.034208823 -0.21775836
0.08863358 -0.2297883 -0.0014760515 -0.084714025 0.077829584 -0.03256582 -0.02891107 0.035540592
0.16748302 0.037518006 0.21838354 -0.22590186 0.08239376 0.011271936 0.32445723 0.11516071
-0.042455655 -0.10403858 0.084425636 0.08581915 -0.009471096 -0.057042424 0.03730874 -0.121243626
0.35671285 -0.15765472 -0.28697705 -0.049127772 0.20011097 -0.13795334 -0.086753905 -0.050431732
0.07086683 -0.09776885 0.116379604 0.37377194 -0.21731436 0.013541441 0.17166501 0.05255802
0.5509019 -0.70352787 0.0628555 -0.46870542 0.116191365 0.26244077 -0.2401055 0.09862707
0.03851555 -0.0740315 0.09931896 -0.027826343 0.11104225 -0.37720713 0.3306197 -0.27651104
-0.1597092 0.090203635 0.20412831 -0.03886745 0.034284048 0.022652924 0.00081456936 0.0513493
0.08158464 -0.12467936 0.18480411 -0.05821656 -0.013034476 0.8943041 -0.059281792 0.0010875624
0.027019896 -0.027428895 -0.09027253 0.028077748 0.0030458437 -0.18458414 -0.06723397 -0.052381083
0.029050518 -0.013773486 0.04092285 0.059519827 0.013129926 -0.0757475 0.07938064 -0.027380576
0.014942564 0.4399713 0.094103344 -0.20464915 0.084536724 0.0998884 0.12303414 -0.07323889
-0.07795736 0.13364786 0.29143992 -0.22461748 -0.5566599 0.085004054 -0.095923916 -0.48436588
-0.16365516 0.010339723 0.103200845 -0.083441965 -0.017597312 0.031893544 -0.035803437 -0.07931579
-0.021855786 -0.13011293 -0.033469483 -0.0049537886 -0.115486816 -0.17347474 0.05009715 0.004170987
0.10790167 -0.034679487 -0.056265697 0.010393416 -0.22177331 0.10914303 -0.08181716 -0.097363025
-0.05132352 -0.23930398 -0.08454862 0.0700247 -0.102669105 0.0009199552 0.042177532 -0.016761044
-0.17855611 -0.15390645 0.087969415 -0.054793555 0.12324696 0.1653343 0.40264663 0.14293937
0.06925305 0.0091824345 0.04572747 -0.36981872 0.10315466 0.0066230088 0.009853939 -0.05746975
0.107465066 -0.045011926 -0.06849687 0.24278824 -0.040363096 -0.19920635 0.27679443 0.17387892
0.24707463 -0.17513517 0.054547008 -0.120622076 -0.2501656 -0.018871984 -0.17832765 0.034336664
-0.07878609 0.1691386 0.025544006 -0.047334448 0.17556396 -0.24462903 0.018125828 0.22071241
0.039049964 -0.14416549 0.15547186 -0.16850513 -0.02659262 -0.05600222 -0.013582039 0.22046247
-0.0832826 -0.038290642 0.12510614 -0.21462765 0.091203876 0.031363092 -0.028144397 -0.11088462
00000000: e796 92bc c0ac 4bbc 86db 5e3d 466a fbbd
00000010: 1a5b 21bd 9a26 5e3d edcf 2d3f 2ef9 923e
00000020: 5d55 86be ba1e 04be cb94 5c3c a796 b53c
00000030: 4d46 183c b8d6 62be a72f eebd 4920 fe3d
00000040: 46b9 04bc 2b3b 223e ceab a63d 7a3c 95bd
00000050: c91a 243e 5764 f43d 4f8a a23e bbca 413d
00000060: a66a cdbd 4a7a 5a3d abba 6d3d 2736 87bd
00000070: c7a3 6b3c d4ef 0c3f 7941 853e 6400 10bc
00000080: 2111 0c3e 2de1 673e 2f3e 003e 9077 a73e
00000090: eb05 75bb 8e51 f53c a53f 82be 6014 923e
000000a0: 156c 173c 64d5 3d3e 9dd4 bbbd 99cc 473d
000000b0: 72bf ec39 ec0f 0e3e 27a2 d13d 9367 2c3e
000000c0: 2511 113d 63f9 b33d f485 213e 04c4 2cbe
000000d0: bcb2 533d 9acf 213c ed1a 0abe fd47 4f3d
000000e0: c298 d2bd 0961 3c3d d9a7 32be 43ae bb3c
000000f0: 0f86 8b3b cce9 033e 8d1e 0cbd 0cfc 5ebe
00000100: 8685 b53d a04d 6bbe 1278 c1ba 8c7e adbd
00000110: 1e65 9f3d bd63 05bd e9d6 ecbc 0393 113d
00000120: ab80 2b3e 7bac 193d ef9f 5f3e d152 67be
00000130: 0fbe a83d edad 383c 421f a63e 61d9 eb3d
00000140: fbe5 2dbd 2e12 d5bd 59e7 ac3d f3c1 af3d
00000150: a82c 1bbc 51a5 69bd 0dd1 183d 944e f8bd
00000160: 11a3 b63e 3d70 21be a8ee 92be 343a 49bd
00000170: e4e9 4c3e a443 0dbe 08ac b1bd 8191 4ebd
00000180: a122 913d 093b c8bd 6e58 ee3d 095f bf3e
00000190: a887 5ebe ecdc 5d3c f4c8 2f3e 1447 573d
000001a0: e807 0d3f 671a 34bf 62ba 803d 28fa efbe
000001b0: bdf5 ed3d a35e 863e 37de 75be fdfc c93d
000001c0: 7bc2 1d3d d49d 97bd bd67 cb3d 12f4 e3bc
000001d0: 1f6a e33d 4b21 c1be fc46 a93e db92 8dbe
000001e0: cf8a 23be afbc b83d 0307 513e 7a33 1fbd
000001f0: 6e6d 0c3d a092 b93c d388 553a a553 523d
00000200: d915 a73d e457 ffbd 4a3d 3d3e 7d74 6ebd
00000210: 8e8e 55bc 1df1 643f 77d1 72bd 8a8c 8e3a
00000220: d458 dd3c 90b2 e0bc cee0 b8bd 4e03 e63c
00000230: c79c 473b a003 3dbe f7b1 89bd 8c8d 56bd
00000240: 5afb ed3c 30aa 61bc b89e 273d 10cb 733d
00000250: e71e 573c 8121 9bbd 5192 a23d 3b4d e0bc
00000260: a8d1 743c eb43 e13e 41b9 c03d 8c8f 51be
00000270: 9721 ad3d 4a92 cc3d 53f9 fb3d 45fe 95bd
00000280: 1ca8 9fbd fcda 083e 9d37 953e 2002 66be
00000290: 4381 0ebf 9b16 ae3d c273 c4bd cefe f7be
000002a0: 3895 27be f167 293c f75a d33d 9fe3 aabd
000002b0: 3d28 90bc cea2 023d a0a6 12bd 5170 a2bd
000002c0: e80a b3bc 533c 05be 4c17 09bd 6453 a2bb
000002d0: 5a84 ecbd 5da3 31be ab32 4d3d c6ac 883b
000002e0: 8dfb dc3d 140c 0ebd dc76 66bd 2549 2a3c
000002f0: 8b18 63be 6286 df3d c18f a7bd 4466 c7bd
00000300: 9c38 52bd 1a0c 75be d427 adbd 1c69 8f3d
00000310: 2e44 d2bd 2629 713a 59c2 2c3d 754e 89bc
00000320: 6ad7 36be a799 1dbe 4f29 b43d 356f 60bd
00000330: e768 fc3d 654d 293e b327 ce3e b35e 123e
00000340: 8bd4 8d3d ec71 163c ba4c 3b3d e158 bdbe
00000350: c042 d33d d305 d93b 6a72 213c 6765 6bbd
00000360: a516 dc3d 6d5e 38bd 1648 8cbd 7b9d 783e
00000370: c653 25bd c0fc 4bbe 00b8 8d3e 510d 323e
00000380: 2201 7d3e a256 33be af6c 5f3d b508 f7bd
00000390: b515 80be 6b99 9abc 869b 36be 9aa4 0c3d
000003a0: 9a5a a1bd ab32 2d3e aa41 d13c c4e1 41bd
000003b0: 0ac7 333e 0880 7abe 9e7c 943c 6f02 623e
000003c0: dbf2 1f3d 1ea0 13be 0434 1f3e 9c8c 2cbe
000003d0: c4d8 d9bc 9562 65bd 3387 5ebc eac0 613e
000003e0: 1190 aabd a6d6 1cbd d31b 003e 5ac7 5bbe
000003f0: 19c9 ba3d 9676 003d 148f e6bc 7a17 e3bd

encoder.ffn.0.bias f4 [33]
0.19579357 0.09303579 -0.010828186 0.06964641 0.08969684 0.21600287 0.055967 -0.11455855
0.012335172 -0.027815692 0.048528895 -0.043465346 0.13683029 0.057241358 -0.120362625 -0.010471094
-0.04216047 0.13683532 0.01313825 0.032199737 0.12725097 0.08506112 -0.1060217 0.035073545
0.09775509 -0.07542678 -0.1579336 0.08306438 0.10241591 0.002973009 -0.048715472 -0.0543316
-0.047997314
00000000: 1c7e 483e 8c89 be3d b468 31bc c7a2 8e3d
00000010: fab2 b73d db2f 5d3e a73d 653d ac9d eabd
00000020: 7619 4a3c bcdd e3bc 3cc6 463d b808 32bd
00000030: 3d1d 0c3e ea75 6a3d ae80 f6bd f48e 2bbc
00000040: 75b0 2cbd 8f1e 0c3e d141 573c dfe3 033d
00000050: 144e 023e 8634 ae3d e821 d9bd 47a9 0f3d
00000060: d233 c83d 5b79 9abd 58b9 21be a81d aa3d
00000070: 6fbf d13d d0d6 423b e089 47bd d08a 5ebd
00000080: d598 44bd

encoder.ffn.3.weight f4 [18, 33]
0.047293108 0.026714722 -0.058163334 -0.2412959 -0.09315612 0.024818545 -0.24074766 0.16642706
-0.11334481 -0.03063441 -0.17178014 -0.013984723 0.07715399 0.22809738 0.343938 0.13456808
-0.08559458 0.16387337 -0.10023015 0.16996746 -0.059377685 0.08912583 0.12401708 -0.032958947
0.31877756 0.19973885 0.18500637 0.15601382 0.120832264 0.10737602 0.10427167 0.30496565
-0.16224505 0.20256396 0.06367397 0.08597271 -0.15691328 0.16669758 0.11312551 -0.056761634
0.100029714 -0.13046472 0.49034587 0.23866132 0.13522007 0.049543142 -0.024162414 0.23550022
-0.07887515 -0.28157917 0.14171815 0.22548266 -0.0007528639 0.053557143 -0.124520384 0.0033610514
0.17713603 0.21728761 -0.16388023 0.3453711 0.028925627 0.13865528 -0.040368486 0.1636464
-0.002368568 0.16178495 0.12057565 0.18451451 0.3629918 -0.09640349 -0.1269773 0.20723762
0.13590647 0.21538918 0.0011775456 -0.26124865 0.18137708 0.18605474 -0.08350585 -0.26446325
0.19186091 0.030184884 0.17249268 0.25536954 0.035357658 -0.049903575 -0.05990977 0.119411066
0.15242417 0.031037679 -0.037737682 0.24870026 0.21975629 0.2627818 0.16960013 -0.064743005
-0.021538192 -0.065226495 0.17261223 0.0049014436 0.22657189 -0.0788285 0.2544538 -0.07888052
-0.100613125 0.046270084 -0.027027225 0.28724402 0.34251508 -0.029895574 0.06188927 0.19711676
0.009086922 -0.10681457 0.034537658 -0.17010432 0.1901976 0.040585935 0.16367297 0.06105471
0.26835802 0.28888586 0.10036115 0.051618274 -0.0634543 0.19057792 0.19583632 -0.042255018
0.060379844 -0.11794528 0.10271318 -0.19810948 -0.08112796 -0.105656534 -0.075243585 0.07628649
-0.06712811 -0.07684692 -0.002238818 -0.22950378 -0.028278373 -0.01947196 -0.04054557 -0.17401831
-0.2829797 -0.035987537 -0.20932129 -0.13474582 -0.1065776 -0.025815539 -0.012692862 0.04582163
-0.07327106 -0.09490341 0.03781199 -0.2778877 -0.053910106 -0.2945142 -0.124157384 -0.14819144
0.06175063 0.048931554 0.04160163 -0.013668349 -0.17428595 -0.008785812 0.04673581 -0.2823307
-0.19046378 0.028274259 -0.03242785 -0.20274863 -0.22667338 0.0009496717 -0.15323693 -0.22729963
-0.07226472 -0.08073243 -0.09619494 0.015167239 -0.15039214 0.10613559 -0.11740072 -0.2363176
0.008830755 -0.019908862 -0.21436484 -0.015958186 -0.14233698 -0.14478952 0.07489579 -0.19283555
-0.105104335 -0.25170293 -0.08271077 -0.044276915 -0.15317708 -0.20108728 -0.18117996 0.2171105
-0.06531808 0.23910587 -0.39832717 -0.5008026 -0.55304873 0.37718838 0.29364124 -0.44971952
-0.52896327 0.16377382 0.00992799 -0.09488011 -0.677993 -0.15587834 -0.3622835 0.26465988
-0.12037148 -0.56831247 0.3749959 0.09385705 -0.16603649 -0.7853397 -0.24557884 -0.22699483
-0.5174355 0.27072015 -0.5163823 -0.75264025 -0.5064953 -0.5910488 0.024852779 0.31910968
0.008819264 -0.0810024 0.14588118 0.137065 0.23655681 0.07744933 -0.13993172 -0.099588886
-0.14225535 0.16773236 -0.13797614 0.17714758 0.3096467 -0.002377077 0.25339577 0.15509056
0.3108964 0.06915586 0.119058855 0.35101166 0.15712206 0.13594493 0.083739035 0.06693747
00000000: 6bb6 413d d5d8 da3c ad3c 6ebd 4616 77be
00000010: a3c8 bebd 4350 cb3c 8e86 76be db6b 2a3e
00000020: 5321 e8bd 04f5 fabc 22e7 2fbe 2e20 65bc
00000030: e902 9e3d 5c92 693e a418 b03e 37cc 093e
00000040: 364c afbd 6cce 273e 7745 cdbd f30b 2e3e
00000050: 0436 73bd 9a87 b63d abfc fd3d f6ff 06bd
00000060: d036 a33e 5788 4c3e 4f72 3d3e 16c2 1f3e
00000070: e876 f73d f5e7 db3d 638c d53d 7524 9c3e
00000080: 9123 26be ed6c 4f3e 8067 823d 7612 b03d
00000090: e0ad 20be c5b2 2a3e 59ae e73d e37e 68bd
000000a0: 61dc cc3d 8b98 05be 9d0e fb3e a263 743e
000000b0: 2177 0a3e c0ed 4a3d 41f0 c5bc f826 713e
000000c0: 4b89 a1bd 252b 90be 901e 113e ede4 663e
000000d0: d75b 45ba bc5e 5b3d 8b04 ffbd 1645 5c3b
000000e0: 2663 353e a580 5e3e 38d0 27be 7bd4 b03e
000000f0: 70f5 ec3c a6fb 0d3e 6d59 25bd ec92 273e
00000100: fa39 1bbb f4aa 253e 5ef0 f63d 5ff1 3c3e
00000110: 10da b93e 316f c5bd 5606 02be 1936 543e
00000120: 112b 0b3e fb8e 5c3e e057 9a3a 62c2 85be
00000130: eaba 393e 2285 3e3e 1d05 abbd ba67 87be
00000140: 3077 443e 4a46 f73c eca1 303e ccbf 823e
00000150: 31d3 103d b167 4cbd f263 75bd ca8d f43d
00000160: 1515 1c3e bb42 fe3c d492 1abd 48ab 7e3e
00000170: cb07 613e 568b 863e a8ab 2d3e fb97 84bd
00000180: dd70 b0bc 7895 85bd 43c1 303e 4a9c a03b
00000190: 7602 683e d670 a1bd c547 823e 1c8c a1bd
000001a0: 410e cebd b385 3d3d 3368 ddbc a611 933e
000001b0: 235e af3e 90e7 f4bc 9a7f 7d3d fad8 493e
000001c0: 50e1 143c 99c1 dabd 5c77 0d3d d42f 2ebe
000001d0: 29c3 423e 703d 263d e399 273e 8114 7a3d
000001e0: 3966 893e d9e8 933e 268a cd3d af6d 533d
000001f0: 54f4 81bd dc26 433e 5189 483e 9913 2dbd
00000200: db50 773d 4c8d f1bd 4a5b d23d 36dd 4abe
00000210: 6a26 a6bd 7462 d8bd 4f19 9abd 173c 9c3d
00000220: 767a 89bd eb61 9dbd 22b9 12bb 0a03 6bbe
00000230: 0ca8 e7bc a983 9fbc 1d13 26bd db31 32be
00000240: b7e2 90be ab67 13bd 5258 56be cffa 09be
00000250: 5b45 dabd 1c7b d3bc b9f5 4fbc 76af 3b3d
00000260: 230f 96bd b85c c2bd bfe0 1a3d 4c47 8ebe
00000270: d8d0 5cbd 91ca 96be 3a46 febd 7fbf 17be
00000280: 3bee 7c3d 746c 483d 7966 2a3d 36f1 5fbc
00000290: 0478 32be 5ef2 0fbc 0c6e 3f3d a68d 90be
000002a0: f008 43be 6b9f e73c 11d3 04bd 569d 4fbe
000002b0: 111d 68be 64f3 783a 24ea 1cbe 3cc1 68be
000002c0: 87ff 93bd 0b57 a5bd da01 c5bd 0380 783c
000002d0: 6600 1abe 9e5d d93d ca6f f0bd 3efd 71be
000002e0: dfae 103c e917 a3bc 7582 5bbe beba 82bc
000002f0: c9c0 11be b443 14be f762 993d af76 45be
00000300: f140 d7bd 35df 80be 4464 a9bd b65b 35bd
00000310: 74da 1cbe d3e9 4dbe 3d87 39be 3752 5e3e
00000320: 7cc5 85bd 2bd8 743e 8af1 cbbe 9934 00bf
00000330: 9a94 0dbf d61e c13e 2558 963e a341 e6be
00000340: 236a 07bf 53b4 273e 02a9 223c 8150 c2bd
00000350: f390 2dbf 929e 1fbe 397d b9be 8081 873e
00000360: 5385 f6bd ed7c 11bf 76ff bf3e 2038 c03d
00000370: 7805 2abe 060c 49bf 0579 7bbe 5571 68be
00000380: a776 04bf d59b 8a3e a131 04bf 08ad 40bf
00000390: ada9 01bf f94e 17bf 0e98 cb3c 5862 a33e
000003a0: ad7e 103c 96e4 a5bd e061 153e c45a 0c3e
000003b0: f33b 723e c19d 9e3d 434a 0fbe 42f5 cbbd
000003c0: 63ab 11be 08c2 2b3e 9e49 0dbe 2d66 353e
000003d0: 038a 9e3e bcc8 1bbb 17bd 813e 0fd0 1e3e
000003e0: d02d 9f3e 96a1 8d3d 21d5 f33d cdb7 b33e
000003f0: 9be4 203e 2635 0b3e 5f7f ab3d 8316 893d

encoder.ffn.3.bias f4 [18]
0.2914441 0.33478063 0.07994598 0.0677099 -0.2825642 -0.10164737 -0.12686789 -0.07879916
0.2202026 0.39276505 0.19732288 0.24863684 0.070715584 0.21462117 0.011031037 -0.1424801
0.026209109 0.16094087
00000000: 2938 953e 5e68 ab3e b8ba a33d 7dab 8a3d
00000010: 41ac 90be 7f2c d0bd a8e9 01be 7461 a1bd
00000020: ca7c 613e 8018 c93e 020f 4a3e a89a 7e3e
00000030: 55d3 903d a7c5 5b3e 86bb 343c 4ee6 11be
00000040: 7cb4 d63c afcd 243e

decoder.ffn.0.weight f4 [33, 18]
-0.21666473 0.16383953 0.29968473 -0.3285788 -0.16775036 -0.06308079 0.2147864 -0.332244
0.1508682 -0.1796396 0.06218567 -0.0102862585 -0.11995844 -0.0923334 0.2176491 -0.25043187
-0.00038545625 0.24678427 -0.111144535 -0.22878149 -0.16357496 0.25524685 0.14872292 -0.018467829
-0.44257733 0.26166686 -0.2856265 0.30771765 0.3235173 0.116184406 0.22664571 0.21035153
-0.2474034 -0.29167372 -0.008345463 -0.29680675 0.54087085 0.37600666 0.039814066 -0.13203755
0.16149576 0.20516095 -0.018874347 -0.06396412 0.0490147 0.14955314 -0.037347246 -0.19234727
-0.23515067 -0.2230269 0.036346592 0.0983009 -0.24346946 -0.28210726 0.13823159 -0.123103365
0.14753853 0.2426405 -0.0676634 -0.24382925 -0.25983265 -0.024831962 -0.12369489 -0.16288307
0.044561043 -0.3773612 -0.3399128 0.4681808 0.020006742 -0.032630347 0.08520055 0.0056587146
0.19890729 -0.17806596 0.07828954 -0.00868923 0.03531478 -0.1654735 0.19823295 0.29000705
-0.35870206 0.14797422 0.057895448 0.13790254 -0.108958535 0.22726169 -0.12935604 0.14832325
-0.319041 -0.44742966 0.35728955 -0.16884376 -0.032999832 0.31440708 -0.095001206 -0.14906053
0.23647472 -0.7352728 -0.19316456 0.032950215 0.24561244 -0.112595916 0.38750145 0.35743153
-0.3024534 -0.13021705 0.1090161 0.049162373 -0.1642558 -0.100804836 -0.07012453 -0.11139918
0.0053736684 -0.33111954 0.27982667 -0.1091226 0.24143666 0.26219404 -0.052139882 0.130271
-0.33127272 0.3783522 0.13681236 -0.012193329 -0.39064226 -0.085396744 -0.40460658 0.11294723
-0.19919242 0.021671122 0.11308872 -0.031932756 -0.2635652 0.1608687 -0.06535025 0.113606
0.29775253 0.1770779 -0.28441823 -0.36627087 -0.033462167 -0.028703932 -0.24023032 0.22663228
-0.085797645 -0.03594058 0.18798022 0.26251704 0.2287144 0.03073411 -0.22952776 -0.05061033
0.3867166 -0.12255949 0.3129001 -0.041939154 -0.011287205 -0.27221382 -0.016082045 -0.3115431
0.08625394 -0.22115399 -0.25950468 0.13151759 -0.23005755 -0.0024070756 0.0039004711 -0.0720175
-0.3450576 0.25574046 0.38332945 -0.2597321 0.25809574 -0.5986342 0.27383357 0.08282642
-0.015625454 -0.095591046 -0.3558578 -0.21124503 0.30902803 -0.2903357 0.09454819 -0.17631468
0.1627963 0.13942398 -0.33727455 -0.06795732 0.243328 0.11294561 0.11771527 -0.099974886
0.36071235 -0.24694128 -0.14258197 -0.24609916 0.22220838 0.4019399 -0.13366006 -0.24331538
0.14326507 -0.11847374 -0.04681212 0.17260107 -0.049244914 -0.29191348 -0.1508473 -0.028584832
-0.20863435 -0.2605048 0.06414207 0.09056209 0.009798107 0.16747853 -0.04841824 0.076589525
-0.0128561035 0.40860885 -0.35825786 -0.051533327 -0.002132792 -0.347189 -0.047047272 -0.07681429
-0.016003223 -0.14531676 0.053412687 0.08147702 -0.082233936 0.23062621 0.0035029394 0.32948157
0.24160044 0.07119188 0.14348724 0.08278202 -0.05465632 0.20959203 0.04408567 0.21505581
0.16939205 0.26575094 -0.11837945 0.19068995 -0.26145965 -0.36908594 -0.0383113 -0.31553784
-0.20340858 -0.3248531 0.19182199 0.19845428 0.16451547 0.29900387 0.02407469 -0.112600096
00000000: 5cdd 5dbe 8dc5 273e 4770 993e 7b3b a8be
00000010: c0c6 2bbe 8030 81bd f7f0 5b3e e31b aabe
00000020: 327d 1a3e 71f3 37be 67b6 7e3d b287 28bc
00000030: c5ac f5bd 4b19 bdbd 68df 5e3e 9b38 80be
00000040: 1017 cab9 04b5 7c3e bf9f e3bd b245 6abe
00000050: 3280 27be b7af 823e d24a 183e d849 97bc
00000060: 7f99 e2be 33f9 853e a33d 92be 2b8d 9d3e
00000070: 0fa4 a53e 17f2 ed3d d015 683e 6466 573e
00000080: 5157 7dbe 4256 95be 69bb 08bc 0ef7 97be
00000090: 8376 0a3f f283 c03e 1314 233d da34 07be
000000a0: 255f 253e b615 523e 609e 9abc 9fff 82bd
000000b0: a3c3 483d 7524 193e 6df9 18bd aff6 44be
000000c0: 56cb 70be 2a61 64be 2ae0 143d fb51 c93d
000000d0: 0f50 79be 5d70 90be 958c 0d3e 9e1d fcbd
000000e0: 5714 173e c076 783e 1c93 8abd 60ae 79be
000000f0: c908 85be 666c cbbc bf53 fdbd d2ca 26be
00000100: a485 363d 7d35 c1be 0d09 aebe 65b5 ef3e
00000110: 2ee5 a33c 66a7 05bd a07d ae3d bd6c b93b
00000120: 5aae 4b3e ec56 36be 4456 a03d 465d 0ebc
00000130: 3ba6 103d e371 29be 94fd 4a3e ce7b 943e
00000140: cca7 b7be 8e86 173e c723 6d3d 5336 0d3e
00000150: a725 dfbd 4ab7 683e e975 04be 0de2 173e
00000160: 5859 a3be 8015 e5be a8ee b63e 61e5 2cbe
00000170: d52a 07bd f7f9 a03e fe8f c2bd 53a3 18be
00000180: 6e26 723e d73a 3cbf eecc 45be cef6 063d
00000190: d481 7b3e b098 e6bd 9766 c63e 4401 b73e
000001a0: 2cdb 9abe 9e57 05be d543 df3d 7c5e 493d
000001b0: ac32 28be c472 cebd 739d 8fbd 4125 e4bd
000001c0: 9915 b03b 8088 a9be 7145 8f3e ab7b dfbd
000001d0: 2c3b 773e 4c3e 863e a190 55bd c365 053e
000001e0: 949c a9be 61b7 c13e 8a18 0c3e 87c6 47bc
000001f0: 4302 c8be 7de4 aebd 9828 cfbe e150 e73d
00000200: 19f9 4bbe a387 b13c 0f9b e73d eccb 02bd
00000210: 05f2 86be c4ba 243e 5ad6 85bd 43aa e83d
00000220: 0573 983e e953 353e 449f 91be db87 bbbe
00000230: a00f 09bd 8224 ebbc f0fe 75be 4b12 683e
00000240: adb6 afbd 6e36 13bd e37d 403e a268 863e
00000250: 1c34 6a3e 1ac6 fb3c 5309 6bbe c74c 4fbd
00000260: b8ff c53e 7800 fbbd 7134 a03e 64c8 2bbd
00000270: f8ed 38bc 9c5f 8bbe 7ebe 83bc 9482 9fbe
00000280: e8a5 b03d 3176 62be ccdd 84be 8cac 063e
00000290: 3594 6bbe 07c0 1dbb 0c9f 7f3b e97d 93bd
000002a0: 64ab b0be 6af0 823e c243 c43e 9bfb 84be
000002b0: 2025 843e 1740 19bf ea33 8c3e e6a0 a93d
000002c0: f400 80bc 3dc5 c3bd fe32 b6be 9e50 58be
000002d0: ec38 9e3e e2a6 94be 7ba2 c13d d68b 34be
000002e0: 13b4 263e 29c5 0e3e 40af acbe 352d 8bbd
000002f0: fa2a 793e 0750 e73d b414 f13d a2bf ccbd
00000300: 4aaf b83e 2dde 7cbe 0201 12be 6b01 7cbe
00000310: 988a 633e 11cb cd3e 2fde 08be ab27 79be
00000320: 14b4 123e 5ca2 f2bd 11be 3fbd 56be 303e
00000330: 09b5 49bd af75 95be b777 1abe bd2a eabc
00000340: 3ea4 55be e360 85be eb5c 833d 9e78 b93d
00000350: 3d88 203c 7e7f 2b3e 3452 46bd f8da 9c3d
00000360: 68a2 52bc 2e35 d13e 936d b7be 9c14 53bd
00000370: 50c6 0bbb c2c2 b1be a4b4 40bd cf50 9dbd
00000380: 3119 83bc ebcd 14be 43c7 5a3d 6ddd a63d
00000390: 446a a8bd 4729 6c3e 9291 653b cfb1 a83e
000003a0: 1b66 773e 0ccd 913d 52ee 123e 9f89 a93d
000003b0: 4edf 5fbd 4b9f 563e 2d93 343d 9737 5c3e
000003c0: 1c75 2d3e 8210 883e ed70 f2bd 3a44 433e
000003d0: 0ade 85be d5f8 bcbe 4fec 1cbd 2d8e a1be
000003e0: 574a 50be 2553 a6be fc6c 443e 9937 4b3e
000003f0: be76 283e 0917 993e 4938 c53c e19a e6bd

decoder.ffn.0.bias f4 [33]
0.096127525 -0.06675858 0.0052759624 0.32838413 0.22733848 0.37476522 0.08991808 0.2755522
-0.13218349 0.3699322 -0.48407897 0.12625784 -0.111231156 0.23916039 -0.38860378 0.3057673
-0.069841765 0.17046688 0.06156531 -0.10133033 -0.258602 0.55099094 -0.11262811 0.61972785
0.2787321 -0.05078576 -0.2195472 0.5559225 -0.1106384 0.34382576 0.070957385 -0.06908689
0.040235307
00000000: 82de c43d b9b8 88bd fbe1 ac3b f721 a83e
00000010: 6bcb 683e 3ae1 bf3e f826 b83d 2e15 8d3e
00000020: 1c5b 07be c167 bd3e 33d9 f7be bc49 013e
00000030: 29cd e3bd 76e6 743e 13f7 c6be 888d 9c3e
00000040: 3309 8fbd df8e 2e3e e82b 7c3d 4786 cfbd
00000050: 7b67 84be be0d 0d3f 91a9 e6bd 7ca6 1e3f
00000060: f9b5 8e3e bb04 50bd fbd0 60be f050 0e3f
00000070: 6396 e2bd ee09 b03e 1b52 913d 6d7d 8dbd
00000080: c7cd 243d

decoder.ffn.3.weight f4 [66, 33]
0.09794526 0.10556239 -0.4268034 -0.37611985 -0.2149143 -0.036090657 -0.18068771 -0.31718972
-0.18928462 0.19864579 -0.2459003 -0.12700683 -0.0835373 -0.29198316 -0.043230772 -0.25057775
-0.30646643 -0.0062943385 -0.28158388 0.012220942 -0.05955515 0.09286011 0.027203538 -0.13350332
-0.23567156 -0.22693175 0.14620021 -0.25582182 -0.003431227 0.09513774 0.09755717 -0.29402727
-0.25533864 0.5798896 -1.2026291 -0.107155256 0.34690496 -0.71939254 -0.06297226 0.09007715
-0.35722974 0.1854648 -0.09522154 0.40877628 0.16759135 0.0433236 -0.0039079385 0.14157704
-0.13165487 0.15358089 0.0010441081 -0.28796923 0.009756255 -0.09608818 0.008702258 0.065663345
0.26205686 0.1500029 -0.22040428 -0.011072274 -1.2686805 0.05097653 -0.06482789 0.17689766
0.10921936 0.06776648 0.009006178 -0.0019983957 -0.41194504 0.3576838 -0.49879012 -0.07163561
-0.6007097 -0.13858612 0.42340237 -0.53924626 0.22080196 0.010475165 0.3826832 0.30332512
-0.22191401 -0.09437602 0.65182865 0.27417797 0.38301852 0.33385888 0.03650578 -0.048115652
0.46808347 0.29361978 -0.2652727 -0.2468691 0.0673308 -0.14104837 0.04637273 -0.07059233
-0.1585306 -0.6880275 0.0804912 0.15694456 -0.2516746 0.061868466 -0.45991585 0.009097147
-1.1326208 0.081691496 0.4061437 0.008066133 -0.059610892 -0.028247576 -0.13716489 -0.121890046
0.0056066406 0.1995707 -0.20847082 -0.07899448 0.07773114 0.13241258 0.1713112 -0.07052502
-0.14292245 0.12432344 -0.040733837 0.15609808 -0.443072 -0.0688542 -0.00817075 0.074957535
0.34754786 -0.18921903 -0.20586385 0.20647626 0.19483249 -0.6390683 0.117350884 -0.19420142
-0.9090067 0.14441113 -0.26779088 0.24820481 0.06654841 0.2297957 -0.086243354 -0.30224815
0.44740117 0.23782615 0.15251215 -0.17480806 -0.19262125 -0.1596304 0.48662105 -0.36477202
0.07421431 0.1254371 -0.23634899 0.26405838 0.2712191 0.4391161 -0.027152522 -1.0767654
-0.11731137 -1.3112798 0.19742984 -0.14657497 -0.13517182 -0.06673511 0.06144624 -0.11912349
-0.1504747 -0.17320943 -0.15746571 -0.06314935 -0.22107038 -0.112321354 -0.04420772 -0.22101854
0.048283212 -0.17825156 0.03170505 -0.15173732 0.057639904 -0.0149010215 -0.08939511 0.024913538
-0.1562338 -0.0395603 -0.18036078 -0.05399629 -0.07966334 -0.23338528 -0.26336557 0.13367052
0.010796287 0.005756888 -0.17285335 -0.002776244 -0.15222286 -0.040596854 -0.15581422 -0.01879346
0.26353857 -0.20190577 -0.043686874 -0.5821856 0.39208478 0.1872057 -0.03770441 0.012131043
0.013550926 -0.14503478 -0.103614226 0.33722624 0.5619496 -0.2633538 -0.09556468 0.030238738
-0.3414696 -0.028531084 -0.0037408876 -0.31479767 0.5908709 0.16622168 0.016276188 -0.019136028
-0.08120653 -0.011478258 -0.042850938 -0.155147 0.586881 -0.029705318 -0.2244328 -0.42008278
0.43976936 -0.16144857 -0.83134305 -0.07883693 0.3217018 -0.88765526 -0.63686585 0.005404605
0.5391776 0.8695691 -0.097317725 -0.28415132 -0.20319961 0.6112206 0.44159776 -0.70309126
0.44826877 0.38303363 0.39326027 -0.3775075 -0.3137674 -0.3000902 -0.37695742 0.44808826
00000000: 8697 c83d 1831 d83d fa85 dabe c892 c0be
00000010: 7f12 5cbe ccd3 13bd 3306 39be b166 a2be
00000020: d4d3 41be cd69 4b3e 4acd 7bbe 140e 02be
00000030: 9b15 abbd d17e 95be c012 31bd ba4b 80be
00000040: 2be9 9cbe bd40 cebb c32b 90be 593a 483c
00000050: 1af0 73bd 712d be3d f4d9 de3c 18b5 08be
00000060: e353 71be cc60 68be 82b5 153e 14fb 82be
00000070: 70de 60bb 93d7 c23d 0ecc c73d be8a 96be
00000080: bfbb 82be a573 143f c0ef 99bf 3774 dbbd
00000090: 879d b13e 1c2a 38bf 9af7 80bd 5e7a b83d
000000a0: d1e6 b6be 7cea 3d3e 8303 c3bd 204b d13e
000000b0: 119d 2b3e 1674 313d 2a0e 80bb 92f9 103e
000000c0: 89d0 06be 4f44 1d3e 74da 883a b470 93be
000000d0: b3d8 1f3c e1c9 c4bd ea93 0e3c 817a 863d
000000e0: 512c 863e 5c9a 193e a9b1 61be 7c68 35bc
000000f0: 1f64 a2bf c4cc 503d 7cc4 84bd a924 353e
00000100: 66ae df3d 27c9 8a3d a68e 133c 84f7 02bb
00000110: 76ea d2be 5522 b73e 6b61 ffbe b1b5 92bd
00000120: 1cc8 19bf 85e9 0dbe 32c8 d83e 0b0c 0abf
00000130: e919 623e 07a0 2b3c 0def c33e 6e4d 9b3e
00000140: 6d3d 63be 3748 c1bd 3ede 263f 0e61 8c3e
00000150: 011b c43e 8def aa3e 1687 153d eb14 45bd
00000160: a3a8 ef3e 5555 963e d3d1 87be 41cb 7cbe
00000170: bbe4 893d fc6e 10be 55f1 3d3d b692 90bd
00000180: d855 22be 9222 30bf 92d8 a43d 13b6 203e
00000190: 7edb 80be ca69 7d3d 177a ebbe 330c 153c
000001a0: b8f9 90bf df4d a73d 11f2 cf3e d027 043c
000001b0: 8d2a 74bd 7667 e7bc f474 0cbe 7da1 f9bd
000001c0: e9b7 b73b 435c 4c3e 6079 55be dcc7 a1bd
000001d0: 8131 9f3d 2a97 073e 346c 2f3e 6c6f 90bd
000001e0: 435a 12be 4a9d fe3d 86d8 26bd 2dd8 1f3e
000001f0: 55da e2be 6e03 8dbd 9cde 05bc 5683 993d
00000200: cbf1 b13e a2c2 41be f9cd 52be 836e 533e
00000210: 2b82 473e fb99 23bf a955 f03d bddc 46be
00000220: aab4 68bf 83e0 133e e31b 89be 6729 7e3e
00000230: 884a 883d 904f 6b3e 5ba0 b0bd 45c0 9abe
00000240: c411 e53e b388 733e 252c 1c3e e200 33be
00000250: 813e 45be 2776 23be 6526 f93e 66c3 babe
00000260: acfd 973d 9572 003e 7805 72be a932 873e
00000270: 3bdd 8a3e d3d3 e03e f76e debc 73d3 89bf
00000280: f240 f0bd 04d8 a7bf 0c2b 4a3e c017 16be
00000290: 7b6a 0abe 6bac 88bd 0daf 7b3d 04f7 f3bd
000002a0: 0a16 1abe d05d 31be b13e 21be 7254 81bd
000002b0: 4660 62be bd08 e6bd 2713 35bd af52 62be
000002c0: 9ec4 453d 9487 36be 28dd 013d 0761 1bbe
000002d0: d217 6c3d 6a23 74bc c914 b7bd 7a17 cc3c
000002e0: c1fb 1fbe fb09 22bd 7fb0 38be 372b 5dbd
000002f0: 8826 a3bd 8dfc 6ebe dad7 86be ede0 083e
00000300: e9e2 303c 47a4 bc3b 7800 31be a5f1 35bb
00000310: 4fe0 1bbe e348 26bd c38d 1fbe bef4 99bc
00000320: 87ee 863e 63c0 4ebe 02f1 32bd 1e0a 15bf
00000330: 56bf c83e dab2 3f3e f06f 1abd 48c1 463c
00000340: b404 5e3c ff83 14be b233 d4bd eba8 ac3e
00000350: eedb 0f3f 4fd6 86be 6ab7 c3bd 3bb7 f73c
00000360: 1ad5 aebe 05ba e9bc ae29 75bb 292d a1be
00000370: 5143 173f 0436 2a3e a455 853c 29c3 9cbc
00000380: 9c4f a6bd 4e0f 3cbc 7784 2fbd dbde 1ebe
00000390: d53d 163f 9158 f3bc b6d1 65be 1715 d7be
000003a0: 7329 e13e c652 25be e6d2 54bf 4275 a1bd
000003b0: 19b6 a43e 603d 63bf a409 23bf 1d19 b13b
000003c0: 8b07 0a3f 159c 5e3f 844e c7bd 487c 91be
000003d0: 8f13 50be f478 1c3f 1a19 e23e cafd 33bf
000003e0: 7c83 e53e fc1c c43e 6959 c93e aa48 c1be
000003f0: 1fa6 a0be 6ca5 99be 9000 c1be d36b e53e

decoder.ffn.3.bias f4 [66]
-0.20073527 0.1267514 -0.27443373 0.3393734 -0.09341259 -0.2941041 -0.23856995 -0.45414543
0.33762634 -0.22850628 0.7343885 -0.21898761 0.3996824 0.18838918 0.4204413 -0.29767355
-0.20230909 0.032635204 0.4363113 0.41658163 -0.24328622 -0.09589219 -0.18634005 0.63326883
0.52746356 -0.22821529 0.41571283 0.22106467 0.32998115 0.07293252 0.28829286 0.48986414
-0.28941366 0.40086895 0.40478367 0.3806745 0.05088333 -0.21988751 0.048297517 0.34962243
0.011388392 0.23745179 -0.12044753 0.61031765 0.3898228 0.056448936 -0.27203903 -0.19480483
0.23081368 0.16145426 -0.27035862 0.21156259 0.055339526 0.08470448 0.5268003 -0.16864955
-0.0740938 0.47642374 0.009056989 -0.2612214 -0.26008207 0.3874337 -0.19637072 0.49031407
0.23566219 0.09899672
00000000: 8c8d 4dbe 1ecb 013e 9482 8cbe 5ac2 ad3e
00000010: 1a4f bfbd d094 96be ae4b 74be c085 e8be
00000020: 5cdd ac3e 8dfd 69be e200 3c3f 4a3e 60be
00000030: 2ca3 cc3e 18e9 403e 1544 d73e ab68 98be
00000040: 1d2a 4fbe 7eac 053d 3264 df3e 304a d53e
00000050: 0620 79be 2063 c4bd edcf 3ebe e81d 223f
00000060: da07 073f 45b1 69be 50d8 d43e c75e 623e
00000070: 4af3 a83e a55d 953d 1f9b 933e 79cf fa3e
00000080: 072e 94be b23e cd3e ce3f cf3e c5e7 c23e
00000090: 0a6b 503d 312a 61be 9ed3 453d b601 b33e
000000a0: 6196 3a3c 9026 733e 32ad f6bd c73d 1c3f
000000b0: db96 c73e 0037 673d b348 8bbe eb7a 47be
000000c0: 6c5a 6c3e 4454 253e 726c 8abe dda3 583e
000000d0: b3ab 623d 8b79 ad3d 62dc 063f 78b2 2cbe
000000e0: 7dbe 97bd d0ed f33e c463 143c d0be 85be
000000f0: 7a29 85be b65d c63e 6815 49be 720a fb3e
00000100: 6e51 713e cbbe ca3d
