models/EnClass_66_18_6_ReLU_Sigmoid_10_epoch_35.pt (torch, 15756 bytes, 8 tensors)

encoder.ffn.0.weight f4 [33, 66]
000000 41 9e c8 3c db ba 24 be d2 7b 72 3d 89 d7 97 3e
       0.024489524 -0.16086905 0.059200116 0.29656628
000010 20 19 e4 be aa cf f1 bd 2a 69 fa 3e 46 c8 64 be
       -0.4455042 -0.11807187 0.4890836 -0.22342023
000020 b2 d0 de bb 8f 12 43 be 54 22 65 bd 09 9a 3e 3e
       -0.0067997808 -0.19050048 -0.05594094 0.18613447
000030 1e 03 72 3e e8 c1 c7 bd ea 6d b7 be d7 31 31 3f
       0.23634002 -0.097537816 -0.35826045 0.69216675
000040 5f ed 62 3e 73 09 23 bd 83 9a bc 3e 63 97 a8 3e
       0.22160862 -0.039803933 0.36836633 0.32928
000050 50 f5 c0 be 14 ad 88 3e 4d ac b8 3e bd 96 63 be
       -0.3768716 0.26694548 0.36068955 -0.22225471
000060 34 83 c6 3e e1 30 90 3d 3c 01 a2 3e 4e a4 11 bb
       0.38771975 0.07040573 0.31641567 -0.0022223177
000070 90 3d ac 3e 64 af 42 be a3 bf ce bd 9a 5c 7f 3e
       0.33640718 -0.19012219 -0.100951456 0.24937668
000080 1e bb 95 bc 48 b6 65 3e e4 e4 1d 3e 39 5e a0 bd
       -0.018277701 0.22432816 0.15419346 -0.078304715
000090 5a 8c 06 3f b8 c8 14 3c df 8e d4 3e dc 4a de be
       0.5255791 0.009081058 0.41515252 -0.43416488
0000a0 4f 59 d4 bd 27 22 05 3f 2a 8f db 3e 44 8d c3 bd
       -0.10368597 0.5200524 0.42882663 -0.09548429
0000b0 51 b1 46 bd 51 a4 09 3f 5a 17 9e be 88 35 d9 3a
       -0.048508946 0.5376635 -0.3087719 0.001657174
0000c0 39 42 6c 3e 01 35 a3 bd c0 79 99 39 e7 1b 22 3f
       0.23072137 -0.07969094 0.00029273145 0.63323826
0000d0 47 eb 6c 3f cb a2 17 3d 1a 40 d3 bd 31 4d 3e 3f
       0.92546505 0.037020486 -0.10314961 0.74336535
0000e0 e6 d3 9d 3e cf 0a cd 3d 50 1f c9 3e d7 c9 12 3f
       0.30825728 0.10011827 0.39281702 0.57339233
0000f0 84 46 05 3f f0 7f 48 bf 22 d1 9c be 77 72 30 3e
       0.52060723 -0.7832022 -0.30628306 0.17231165
000100 46 4d 28 be 65 b3 1f 3e 5b 7a 0f 3d 11 9f 47 3d
       -0.16435727 0.15595777 0.035028797 0.048735682
000110 ba d5 9e bc a1 cf 76 3e 95 a0 07 be 4d e4 07 bd
       -0.019389022 0.24102642 -0.13244851 -0.03317671
000120 fa 6a 7b 3e 74 19 9b bd 21 d1 bf bc 2b d5 50 3d
       0.24552527 -0.07573214 -0.02341515 0.050984543
000130 8d c0 b7 bd 53 15 b0 bd e6 3a a5 be 02 5d 27 be
       -0.08972273 -0.08597817 -0.32271498 -0.16344073
000140 bd c6 1a be 25 54 ff bd a3 56 f7 bd fe 64 55 3d
       -0.15114875 -0.12467221 -0.120770715 0.052098267
000150 db 52 b5 bd c4 35 77 be 85 c6 a5 3d a5 e0 a3 bd
       -0.08853694 -0.24141604 0.08094505 -0.08001832
000160 94 a8 69 be b3 57 b6 be e0 4b f9 3c ff 0c 51 bd
       -0.22818214 -0.35613784 0.030431688 -0.051037785
000170 9d 32 0d be cd 17 9a bb eb 1e 0c be 1c e4 1b be
       -0.13788839 -0.0047025443 -0.1368367 -0.15223736
000180 51 48 4d 3d ef f0 49 be ad 64 f3 3c 27 81 00 be
       0.050117794 -0.19720815 0.029711092 -0.12549268
000190 30 42 e7 3a 2d 05 82 be 98 15 ab 3d f8 dd ed bd
       0.0017643627 -0.25394574 0.08353728 -0.11614603
0001a0 48 1d d8 be 43 71 fd 3b b7 79 29 be b0 64 40 3e
       -0.4220984 0.007734449 -0.16550337 0.18788409
0001b0 97 58 15 be 2f 60 d7 3d e1 e6 c1 be 46 45 2a be
       -0.14584576 0.105163924 -0.3787146 -0.16627988
0001c0 52 e3 87 bd 85 74 75 ba a6 cd 6c be 53 af d9 be
       -0.06635155 -0.0009363371 -0.23125324 -0.42516574
0001d0 59 8b 29 3e 1d fb c2 bd ee a7 e2 3d ba ba bb bd
       0.16557063 -0.09520552 0.11067186 -0.09166475
0001e0 9f 43 82 be 58 54 84 bc 0b a9 a7 bc 00 83 fe bd
       -0.25442216 -0.0161535 -0.020466348 -0.1242733
0001f0 8d 13 84 be 8d 19 28 3e 75 c5 81 bd 0c c6 02 bd
       -0.25796166 0.16415997 -0.0633649 -0.031927153
000200 a2 73 18 bb ea f7 00 be d5 64 a3 bd 47 b0 ad be
       -0.0023262282 -0.12594572 -0.079782166 -0.3392355
000210 52 5e e9 3d 34 3f 36 be 9c 16 0f be c2 fe 22 bb
       0.11394943 -0.17797548 -0.13973469 -0.0024871086
000220 09 50 eb be c6 fa b8 3c 66 e2 4f 3e 44 b6 84 be
       -0.459595 0.022580516 0.20301208 -0.25920308
000230 6e 22 6c be 47 d3 79 3d a6 7d 78 3e 47 05 07 be
       -0.23060009 0.060992505 0.24266681 -0.13185607
000240 0b f2 2f 3d 7f e4 e1 be 45 dc d6 be a3 92 d1 3e
       0.04295544 -0.4411964 -0.41964927 0.40932187
000250 2b 0d a3 3e 94 63 8d 3d a4 1e 92 ba e9 91 10 3e
       0.31845984 0.06903759 -0.0011148048 0.1411816
000260 ee 83 5b be a6 1a 89 be 63 1b 2a 3e 22 31 01 bd
       -0.21437046 -0.26778144 0.1661201 -0.031540997
000270 93 5b a2 3d fb be b7 3d a6 c5 8a 3d ec 1f 50 3e
       0.07927623 0.089719735 0.0677598 0.20324677
000280 25 cd 1c 3e 33 d2 35 bf d0 0c 49 bd b5 38 6a 3e
       0.15312631 -0.71023864 -0.049084485 0.22873195
000290 c7 50 29 3e ac 89 7e 3e 87 4e 14 3e 54 0f e7 be
       0.1653472 0.24857205 0.14483081 -0.45128882
0002a0 e5 b1 d6 3e c4 8f 10 be b6 70 b9 3d b8 f1 be bb
       0.41932598 -0.14117342 0.09054701 -0.005827155
0002b0 28 45 67 3a 55 c1 e1 3e 8a 36 f8 3e 85 a3 75 be
       0.0008822256 0.44092813 0.4847911 -0.23988159
0002c0 6e af a3 bc 8d eb b7 3e bc 6b 74 3e b8 ab 87 bd
       -0.019981112 0.35921898 0.23869222 -0.066245496
0002d0 0b 15 56 3e 3e 50 73 3e 41 ce f4 bd 1f 54 e7 bd
       0.20906465 0.23761079 -0.11953402 -0.11295342
0002e0 65 54 0f 3e 2e 49 77 be cd 27 99 be 8b a2 68 be
       0.13997038 -0.2414901 -0.29913178 -0.22718255
0002f0 eb 81 4c 3e 28 c3 9e 3c cb bd c7 3e 16 b7 95 be
       0.19971435 0.019380167 0.39011988 -0.29241246
000300 58 20 68 3f 52 f3 21 bf 56 79 1c be 66 ff 18 3e
       0.9067435 -0.632619 -0.15280661 0.14941177
000310 8c 9e b9 3d 82 f8 e9 bd 00 fe 83 bd ac 8a e1 bd
       0.090634435 -0.11424352 -0.06444931 -0.11012778
000320 09 fa ac 3d e7 07 6d 3e 30 ac 26 be 83 59 81 be
       0.08446128 0.23147546 -0.16276622 -0.25263605
000330 ca f8 99 3e a7 39 f6 be 73 86 d8 3d b2 28 8f 3d
       0.30072623 -0.4809086 0.10572519 0.06990184
000340 bc 10 15 bd 40 c7 88 3e ee 71 dc 3c 36 22 41 be
       -0.036392912 0.26714516 0.026909795 -0.18860707
000350 4b 57 02 bd 5c 9a 57 3e 23 0f b0 3e 62 bc 8f be
       -0.03182153 0.21054977 0.34386548 -0.28073412
000360 44 f4 bd 3e b6 c2 4b 3e c3 78 0e be e9 6e ba 3e
       0.37100422 0.19898495 -0.13913254 0.36412743
000370 68 74 22 3e d6 30 eb bd 70 86 7a 3d 02 dc 3e 3d
       0.15864718 -0.11483924 0.061163366 0.046596535
000380 93 cf 05 3e b3 85 0d bd f4 8e 78 be fb b7 5a 3e
       0.13067465 -0.034551334 -0.24273282 0.21359245
000390 ee 5a cb 3d 1c 88 64 3d 22 d4 ee be 15 e6 20 3d
       0.09929453 0.055793867 -0.4664622 0.039281923
0003a0 8a 5b a1 3e 0b a1 51 be eb 63 70 3d e7 d8 52 bd
       0.3151515 -0.2047159 0.05868904 -0.051476385
0003b0 c1 5c d3 3d 93 36 df bd ae 51 4b bc ea b9 dd 3d
       0.10320426 -0.10899081 -0.012409611 0.10826476
0003c0 a1 24 54 3e fc a1 85 3c 9e c3 79 bd 0e 2f 97 3e
       0.20717098 0.016312592 -0.06097757 0.29528087
0003d0 bd 01 cc bd 25 19 f0 3c d7 01 e9 3d 69 13 50 be
       -0.09961269 0.029308865 0.11377304 -0.20319904
0003e0 17 3e 46 bd 36 b3 f3 3d c0 23 4f 3f f9 ce 87 3e
       -0.048399057 0.11899416 0.80913925 0.26525095
0003f0 96 d9 38 3e 51 f1 09 3f 3a a0 72 be a5 cf 7f 3d
       0.18051752 0.53883845 -0.23693934 0.062453885

encoder.ffn.0.bias f4 [33]
000000 28 4f 80 3e d4 ed 3b be d0 f0 c2 3d ee 2f b2 3c
       0.2506039 -0.18352443 0.095185876 0.02175137
000010 6b 70 df 3c 07 03 3b 3e 79 77 ff 3a 4a bc 4d bd
       0.027275285 0.18262874 0.0019490562 -0.050228395
000020 c7 c7 1d 3e 54 7c 9f bd 53 26 fd 3d f0 ee 22 3c
       0.1540824 -0.077873856 0.123608254 0.009944662
000030 d3 24 a8 3c 8b dd 22 be 7d e9 de 3d c0 1e 2d 3d
       0.020525372 -0.15904824 0.10884378 0.042265654
000040 e9 94 4c 3e 67 47 29 3c f6 59 89 bd 57 90 3c 3e
       0.1997868 0.010331965 -0.06706612 0.18414436
000050 f4 49 00 3d e9 41 dd 3d 81 97 4f 3c a0 32 1e 3e
       0.031320527 0.10803587 0.012670399 0.15449
000060 5d eb 9d 3d 0e 0f 54 bd 18 0c 47 3d 4f e6 7f 3d
       0.077109076 -0.05177217 0.048595518 0.0624755
000070 4e 9b 9b bd 50 7f 7e 3c cc bb a2 bc 76 b9 fe bd
       -0.075979814 0.015533283 -0.01986494 -0.124377176
000080 7e 74 25 3e
       0.1615772

encoder.ffn.3.weight f4 [18, 33]
000000 23 58 16 3e e3 17 02 3d c2 21 1c bc af 03 a6 3e
       0.14682059 0.03176106 -0.009529533 0.32424685
000010 2a 2f 80 3e 82 04 40 be f6 cc b2 3e 7d 18 54 bf
       0.25035983 -0.1875172 0.34921998 -0.82849866
000020 d6 c0 62 be 34 e3 d8 3e ea 38 6b 3d c0 5a 9c be
       -0.22143874 0.42360842 0.057427324 -0.30537987
000030 a2 60 b9 be 85 f2 cc 3e 34 42 b4 3e d5 a7 9d 3e
       -0.36206537 0.40028778 0.3520676 0.30792108
000040 2d 35 52 be bf 9f a6 3d bb 25 ff 3e 4b 1b 57 be
       -0.20528097 0.08135938 0.49833474 -0.21006505
000050 93 4c 70 be 1f 48 4b be 1b 94 36 3e df 67 05 3e
       -0.23466711 -0.19851731 0.17829935 0.13027905
000060 62 ed 0f be ff 29 ce bd a9 dd 97 3e b1 1f fa be
       -0.14055398 -0.10066604 0.296613 -0.48852304
000070 c0 e0 31 3f ab 0f e9 3d dd 60 61 be 67 cb 18 3f
       0.69483566 0.113799416 -0.22009607 0.5968537
000080 3c 22 e8 3d a9 5b 93 3e 2b e4 ba 3d 31 f1 c3 3e
       0.11334655 0.2878087 0.09125551 0.38269952
000090 59 a5 59 3e 1c c7 3a 3e f8 d2 9a 3e 82 9e f6 3c
       0.21254481 0.18240017 0.3023908 0.03010488
0000a0 4d 22 82 3f 7f 3e 30 3f 4d 7c 24 be 24 b3 bb 3c
       1.0166718 0.6884536 -0.16063042 0.02291257
0000b0 30 6c 94 3e 71 82 18 3f c2 85 7d be 81 21 8f 3e
       0.2898879 0.5957404 -0.24758056 0.2795525
0000c0 86 16 01 3e ed e1 9a 3e a8 a9 6e 3b 3c 51 cb bd
       0.12606248 0.30250493 0.003641704 -0.099276036
0000d0 9c ba b6 3e 26 7e df 3e 1a 8b cc 3e 7d 5b 75 bd
       0.35689247 0.4365093 0.39949876 -0.059901703
0000e0 6f 13 be 3e 42 29 eb 3e d8 1a 9d 3e 3d 77 17 3e
       0.37124202 0.45929915 0.30684543 0.1479158
0000f0 c3 d8 e8 3e 2a ad 02 bf cf 0e e0 3e a3 0c e8 bd
       0.45477876 -0.5104548 0.43761298 -0.11330535
000100 bf 57 65 be 55 87 2d 3e 33 43 55 3e 52 ef 14 be
       -0.22396754 0.16946156 0.20826416 -0.14544418
000110 ab 1d 9e bd 82 07 e8 3d 0c b1 9a 3c 99 44 06 bf
       -0.077205025 0.11329557 0.01888325 -0.5244842
000120 a3 af c0 3e 4b 68 a1 bf 0a d1 48 bf a6 45 d7 3e
       0.37634 -1.2609953 -0.7844397 0.42045325
000130 33 82 f8 3c 75 a1 3a bf 84 72 3d bf 54 6e 4e 3e
       0.030335521 -0.72902614 -0.7400286 0.20159274
000140 87 f2 42 3e 3b 13 ab bd d4 00 03 be 14 ae 89 3d
       0.1903783 -0.08353277 -0.12793285 0.06722656
000150 8b e6 0b 3f e9 8d bf be 7f 52 b2 be 3b ce a1 be
       0.54648656 -0.37412956 -0.34828565 -0.31602654
000160 e6 fe a1 3d 9d 75 f1 bd 42 ac 6f be 0b 55 23 bf
       0.07909946 -0.11790011 -0.23405555 -0.6380164
000170 bd 18 55 3e 69 05 2c bf 33 37 87 3f e7 5c 52 be
       0.20810218 -0.67195755 1.056372 -0.20543252
000180 28 f6 da bd f9 b7 0f 3f 3c 38 59 3e 8e 0f c0 3e
       -0.10691482 0.56140095 0.21212858 0.37511867
000190 32 3f b2 3d 73 37 8a 3e 8c 5e 8f 3d fa e8 82 3e
       0.0870346 0.2699543 0.07000455 0.25568372
0001a0 16 bd df 3e d7 75 bc bd 3a 55 7d 3f 6c 21 04 3f
       0.4369895 -0.09202164 0.9895817 0.516135
0001b0 9a c2 1a be 8a 6d 64 3e 7e c5 ea 3e 8d 0c 2e 3f
       -0.15113297 0.22307411 0.458538 0.679879
0001c0 6c a1 54 be 82 61 5d 3e f9 8f c1 3e 9d 9c c6 3e
       -0.20764703 0.21619228 0.37805155 0.3879136
0001d0 80 cc 84 3d 37 fe 08 be 32 ec c9 3e c3 ae 00 3f
       0.06484318 -0.13378225 0.39438015 0.50266665
0001e0 d1 87 cc 3e 98 7a 39 be 73 ec a3 3e c9 aa 9b 3e
       0.3994737 -0.18113172 0.32016334 0.30403736
0001f0 d7 d2 1e 3f c8 c1 61 3e 75 ae 35 3f fb a3 54 bf
       0.62040466 0.22046578 0.70969325 -0.83062714
000200 aa 3b cf 3e b0 b4 42 be e6 ca 1e 3d 65 ba bb bd
       0.40475208 -0.1901424 0.038767718 -0.09166411
000210 c1 97 ee 3b d0 b2 05 be e2 1c a0 bd 38 40 e3 3d
       0.007281274 -0.13056493 -0.07818009 0.11096233
000220 83 e8 6f be 48 5a 25 be 36 c3 2b be 51 af 53 be
       -0.2342854 -0.16147721 -0.16773686 -0.20672347
000230 14 25 98 bd 55 b4 3b be e3 fb 12 be 51 d5 70 be
       -0.07428947 -0.1833051 -0.143539 -0.23518874
000240 53 01 ec bd 24 2c 1f bd 90 db 7a 3c 0e 7e 6f be
       -0.1152369 -0.038860455 0.015311137 -0.2338793
000250 1b 52 6a be 4e cf ca 3d a1 46 7a be 0a fd 75 3c
       -0.22882883 0.099028215 -0.24441005 0.0150139425
000260 47 b5 88 be 4e 83 9b bd fb 69 86 3d 37 28 91 bd
       -0.26700804 -0.07593404 0.06563183 -0.070877485
000270 d2 22 d8 3d 2e 00 91 bc 50 3a 41 be 9e 04 49 be
       0.105535164 -0.017700281 -0.188699 -0.19630668
000280 f9 9e d2 3d 6f 03 e2 3c e4 0c 66 be dd 0b 8f bd
       0.10284228 0.027589528 -0.22465855 -0.069846846
000290 65 8b e4 bd a8 f4 60 be 0f 74 87 bb e4 93 10 bd
       -0.111594 -0.21968329 -0.0041337083 -0.03529729
0002a0 5d fa 85 bb 32 08 fe 3c a7 d7 20 be 4c 52 f2 bd
       -0.0040886835 0.031009767 -0.15707265 -0.11832103
0002b0 46 37 14 3d 73 5a f7 bd 16 8c 75 3d 3b 28 02 be
       0.036185525 -0.12077799 0.05994805 -0.12710659
0002c0 8e ee 06 be ad fe ba 3d d3 73 07 3c a2 47 f3 bc
       -0.13176939 0.09130607 0.008267361 -0.029697243
0002d0 a6 90 6b be cc d1 8b bd 8e ce c2 3d 99 65 35 bd
       -0.23004398 -0.06827125 0.095120534 -0.044286344
0002e0 0b e7 76 bd 3f f1 83 bd 54 c2 11 3d d5 17 3f be
       -0.060278933 -0.064424984 0.035585716 -0.18661435
0002f0 91 dc 5b be 66 00 fe bd bf 3f 8d be c2 55 fb bc
       -0.21470858 -0.1240242 -0.27587697 -0.030680541
000300 b0 7f 80 bd 8f e2 bd bd d0 4d 2c be 39 d2 d2 bc
       -0.062743545 -0.09271728 -0.16826558 -0.025735008
000310 3b 8e 16 bd 0e 36 2f bd 0d 24 84 3e 24 31 0b 3d
       -0.036756735 -0.04277616 0.25808755 0.03398241
000320 18 0c 73 3c 37 ed a0 3e 2f ea 21 3e 48 15 3c be
       0.014834426 0.3143098 0.1581199 -0.18367493
000330 e6 89 e0 3e 84 34 5f bf bf 1f 7f 3d c3 a4 ec 3e
       0.43855208 -0.8718951 0.062286135 0.46219453
000340 d5 5c 8b 3e ba 00 93 3c 27 85 c2 be 5f 1d d3 3e
       0.27219263 0.017944682 -0.37992212 0.41233346
000350 5c 6d 60 3e 85 94 b1 3e a9 1b 04 3c 26 a8 77 bc
       0.21916717 0.34683624 0.008063235 -0.015115773
000360 91 4f e7 3e 61 76 f7 bd 8a c1 03 be 99 63 2e 3d
       0.45177892 -0.12083126 -0.12866798 0.042575452
000370 c3 ca 95 3e 08 e1 87 3e 02 ae 78 3e 54 ed 99 bd
       0.29256257 0.26538873 0.24285129 -0.0751597
000380 cd 1b b9 3d 9d 9a ef bd 4b ab 2b 3f 5d bf 2d 3c
       0.09038506 -0.11699412 0.6705825 0.010604707
000390 87 a8 bc bd 7f 5c e6 3e a9 1c aa 3c bb d3 36 3e
       -0.092118315 0.44992444 0.02076562 0.17854206
0003a0 2e ad b0 bc b3 29 1b be 57 e5 cb bb 31 6e 15 3d
       -0.021566954 -0.15152626 -0.006222408 0.03648204
0003b0 b4 9a ca be d7 a8 b6 3e 8c 20 8a bf 5a 12 28 bf
       -0.39571154 0.3567569 -1.0791183 -0.65653
0003c0 2e b3 84 3e 57 eb 45 3e 17 ab 14 bf b2 6c 51 bf
       0.25917953 0.19328056 -0.5807356 -0.8180648
0003d0 a6 db a2 3e 33 76 5c 3e e3 d0 be bd 57 a6 88 be
       0.31808203 0.21529464 -0.09317186 -0.26689407
0003e0 d9 64 db bb a7 7e ee 3e 5f 88 cd be c3 06 5f be
       -0.0066953716 0.46581003 -0.40143105 -0.21779923
0003f0 58 1d 87 be 24 c4 53 3e 37 62 5f 3b 39 0b aa bd
       -0.26389575 0.2068029 0.003408564 -0.08302922

encoder.ffn.3.bias f4 [18]
000000 cd d3 63 3e a4 e1 09 3e a3 14 9e 3e 7f ed 31 3e
       0.22248764 0.13464981 0.3087512 0.17375754
000010 df 3e 28 be 99 2d 5b be 27 ef c6 bb bb 13 1a 3e
       -0.16430233 -0.21404113 -0.0060709896 0.15046589
000020 39 77 81 be 1c 75 be 3d 3c a0 c8 3e 5c d3 ac 3e
       -0.25286272 0.092996806 0.3918475 0.33755004
000030 7a 4e 82 3e 7f 4a 6d 3e 73 a4 4b 3d 30 e6 97 3e
       0.25450498 0.23172949 0.049717378 0.29667807
000040 76 77 e9 3d 4e a2 08 3d
       0.113997385 0.03335791

classifier.0.weight f4 [6, 18]
000000 62 69 5a be 88 86 ac 3e 17 de e3 be 63 19 ff 3e
       -0.21329263 0.3369639 -0.4450538 0.49824056
000010 6f d5 d7 3d 3a c1 8b 3c fd f2 83 be f4 d6 a7 be
       0.10538756 0.017059911 -0.25771323 -0.32781184
000020 41 29 03 be c6 99 2c 3e 1e c4 2e be 1c 9d 9c 3e
       -0.12808706 0.16855535 -0.17067 0.30588615
000030 b1 6b 13 bf 15 6e 73 be 39 a1 b7 3e 65 6d 0c bd
       -0.575862 -0.23772462 0.3586519 -0.034284014
000040 43 52 d1 3e 70 e9 a7 bd 9b e1 18 3f 0f b6 89 3e
       0.40883073 -0.081988215 0.59719247 0.26896712
000050 18 29 50 3f 02 a4 0e 3e e9 0d 8b 3d db 69 33 bd
       0.81312704 0.13929752 0.067897625 -0.043802124
000060 c0 cd 21 3f 66 34 e9 3e 44 df b9 3c cd 24 b4 bc
       0.63204575 0.4554779 0.02268947 -0.021990204
000070 b0 f5 3c bf 4c 91 ce be c8 0b 35 3f 39 49 05 3f
       -0.7381239 -0.40345228 0.707211 0.52064854
000080 d1 79 89 3e 5f 07 27 3f 54 78 53 3e e1 3a 50 3d
       0.2685075 0.6524562 0.2065137 0.0508374
000090 f7 23 de 3e 38 81 25 3e 9a 4c 4e 3f 0d de ba 3e
       0.43386814 0.16162574 0.80585635 0.36497536
0000a0 e4 7c cd 3d ba 60 e6 3d 40 fe b0 3e 4c 68 20 3f
       0.100335866 0.11248918 0.34568977 0.62659144
0000b0 9c 99 13 3e 89 e1 db 3d 73 3a 40 bf c4 0a 9d be
       0.14414066 0.10736377 -0.75089186 -0.30672276
0000c0 ad b2 b6 3e d0 7d f7 3e 79 85 47 3e 57 6f 1c 3f
       0.35683194 0.48338175 0.1948451 0.6110739
0000d0 81 b8 2a 3e be f5 3d be ca ad 53 be e8 b9 02 3f
       0.16671945 -0.18550774 -0.20671764 0.5106492
0000e0 97 9e 09 bf 15 27 e7 3e 49 4a c7 bd 5d ab 39 bd
       -0.53757614 0.45147005 -0.09730966 -0.04532944
0000f0 38 31 3d be b5 78 90 be 06 8d c3 bc f2 f7 8a bd
       -0.18475807 -0.28217092 -0.023870956 -0.06785573
000100 15 67 fa 3e 67 3e 01 3f 4b fb 2c bf 94 3c 1e be
       0.4890677 0.50485843 -0.6757094 -0.15452796
000110 65 ce be 3e bf 46 d6 bd de 30 b0 3e e6 fe a5 bd
       0.37266842 -0.104627125 0.34412283 -0.08105259
000120 91 08 88 be ed b3 78 be 9e b9 3b be 08 bf 87 be
       -0.26569036 -0.24287386 -0.18332526 -0.26512933
000130 2d 6b 37 be 4d 25 2a 3e 45 a4 ac 3c 62 de cc bc
       -0.17911978 0.16615792 0.021074424 -0.025008384
000140 5a 78 5e 3d ee 9e dc 3d 2a 3e 17 bd 95 91 3d 3d
       0.054313995 0.10772501 -0.03692452 0.046281416
000150 11 30 2e 3e 48 e6 11 be 1e 7f ad be c7 4f 24 3e
       0.17010523 -0.14248002 -0.33886045 0.16046058
000160 bc 24 08 bd 28 df 81 3d 3b 33 ab 3d a3 10 69 3e
       -0.033238158 0.06341392 0.08359381 0.22760253
000170 28 a9 16 bf 98 bc 9b 3e 95 6a cc 3d f3 51 5d be
       -0.5885186 0.30417323 0.099812664 -0.21613292
000180 6e 75 a8 bd 45 00 d2 be 38 42 6f be 84 ba 8d be
       -0.08225523 -0.4101583 -0.23365104 -0.27681363
000190 32 63 84 3f f8 03 34 3f 45 7e a7 be 6a 0b e0 bd
       1.0342772 0.70318556 -0.32713524 -0.10939677
0001a0 87 a6 57 3e 84 ae e7 bd a6 31 74 3e e8 7f 76 3d
       0.21059619 -0.11312583 0.23847064 0.060180575

classifier.0.bias f4 [6]
000000 67 b3 95 3e 55 4d 58 bc 9e 3f 48 be e5 54 78 3e
       0.29238436 -0.013202031 -0.19555518 0.24251135
000010 78 7d 35 be 84 5f 44 3e
       -0.17723644 0.19177061

classifier.3.weight f4 [3, 6]
000000 cf fb 4a bf 03 3b 5e 3e 8a a5 56 3e a3 04 59 bf
       -0.7929048 0.21702199 0.20961586 -0.847727
000010 08 d4 ba bd 7d ac 34 bf ea 8d 07 3d f7 a6 6b bf
       -0.09122473 -0.70575696 0.033094324 -0.92051643
000020 ff 58 6b bf aa 20 3c 3e 6c 53 28 be 8c 21 81 3e
       -0.9193267 0.18371835 -0.16438073 0.25220907
000030 40 1f 6a 3f 5d 2f 17 be d9 2d 0e be 59 ed 45 3f
       0.91453934 -0.14764161 -0.13884677 0.7731529
000040 f2 87 e3 be b7 cf 76 3f
       -0.44439656 0.964107

classifier.3.bias f4 [3]
000000 c5 e1 44 3e 6b ae c7 3e fe ed 79 be
       0.19226749 0.39000258 -0.24407193
